blob_checkpoints/RNN/_model.pth.tar (torch, 232339 bytes, 6 tensors)

weight_ih_l0 f4 [25, 18]
00000000: 4ac1 d7bd 1d2b a6bd 6755 6a3c 0d60 933d
00000010: 33d4 083c 3d7b dfbd 5041 b23d 8773 303e
00000020: a0b7 4ebd 4da6 32bd 604d 4a3e bdbe f2bd
00000030: b388 b6bc f3a4 893d ed57 28be 531b 08bd
00000040: 6aa1 e1bd 5093 9a3d 3a63 7fbd 531d 03bd
00000050: dda1 f5bd e841 38be bd1f c43d 0fc3 3b3e
00000060: e79e 62bc b03d 863d 1a82 c53d 40a4 1dbd
00000070: e794 07bc 9f79 1fbe 9a27 24bb f71d cd3d
00000080: 9a09 99bd 8712 abbd c70b d83d 9d02 c73d
00000090: 0db1 333d b3cd 2d3c a7fe 3e3d ad32 9bbd
000000a0: ead9 9cbd 4528 33be f027 f13d 5fdc 3d3e
000000b0: 570b b93d 370a 953d b331 c1bd 907d fbbd
000000c0: 0f1f 263e 00db 03be 2528 2dbe 274f e0bd
000000d0: 3add 703d 1293 3c3e 8d03 80bd ea80 3abe
000000e0: d748 f4bd 0d65 eebc c701 323e 0029 31bc
000000f0: cdaf bf3c 1d46 eebd f84e 383e 039d b8bd
00000100: 4b76 3ebe 3381 09be 5dda b6bd bdfc 88bd
00000110: 13f7 72bd 03be 873d 6b91 463e b209 3fbe
00000120: 2d68 153e 8723 0ebd 2235 003e eaea be3d
00000130: ed82 ddbd c71b 443e 675d 9fbb 8264 19be
00000140: 4a24 013e 07eb a2bd 1748 28be 95d1 073e
00000150: 6d76 7abd f336 c93c 7fb7 153e 730d 32bd
00000160: 1a68 a13c f7bc 90bd 936a 1f3d 5a9c 75bd
00000170: 3ab5 8c3d 5ac5 8c3d edc4 823d 6b0b 34be
00000180: b7c6 fd3d 5aef 18bd f32a 613d 4320 d0bd
00000190: f2a8 02be 402d 60bd c77b 18be 330c e33b
000001a0: b3b8 913c 4a66 293e 1dec ce3d 684a 29be
000001b0: 9797 86bd d385 83bd 9acb 083d 3f47 11be
000001c0: cd8c d1b9 d3e4 b13d b533 2abe 1a96 4a3c
000001d0: 9d31 d23d 67e2 883c 000a 093b ba8e 24be
000001e0: 7fbe 233e b7ca 2f3e 802e 78bc 0000 df3a
000001f0: 4d60 f53d b781 f83d f3f8 c3bc bac0 1ebd
00000200: 9ac9 49ba 8399 0ebe 3384 0abd 4ba8 1abe
00000210: 9a6d 033c 531a 093d 3b55 3cbe 3a3a 153d
00000220: 8253 453e f827 4bbe 2054 17bd 3aea 06be
00000230: 8039 8f3d 42fc 11be 3f7a 473e c3cb ef3d
00000240: 3d81 98bd 8d7b debd 630d 493e 05b4 3e3e
00000250: 5d16 ca3d 93c8 34be 7a58 86bd 00cb abbd
00000260: 3ac6 f53d 8b11 42be 3a56 3b3d 2b47 393e
00000270: 2adc bbbd 737c 713d 4385 44be 8dd1 2dbe
00000280: 0ad6 8c3d 0ae0 a8bd cf0e 123e 677c a9bb
00000290: fa2b 8e3d 5287 3e3e 67ea 6fbb b85e 423e
000002a0: a27f 42be 4d41 cd3d 48db 25be 923e 3f3e
000002b0: d3fc 68bd 9afd 903c bd01 073e bb87 17be
000002c0: 2580 23be 107b abbd 730b 473d c708 183d
000002d0: a5bf 0fbe ba3d 8c3d d0f8 2e3e 8357 85bd
000002e0: 4d4c 31be f325 c33d 9fab 46be f068 813d
000002f0: 13d6 f23d 673a 913a 67cc 3fbd c009 533d
00000300: 58b9 17be b7ee 34be 677f b7bb 2f03 0b3e
00000310: ff7d 0ebe ca4d e7bd 9d75 9f3d a727 243d
00000320: 13fe e83d c30d 9e3d 68d3 2bbe cd44 343c
00000330: 33ed 143b 30c5 fb3d 87c0 babd 3aeb 1cbd
00000340: 7302 4a3e cdb5 f33b 5a2b 563d 9a19 1dba
00000350: e04f 493d ea66 3fbe 237e ef3d 57dc c6bd
00000360: 700b 01be a745 323d 3a8d b0bd ed03 01be
00000370: 0082 7fbb 6394 263e e034 0f3e 4b9d 3ebe
00000380: 7a55 393e 733f 883c 2703 db3c 07c7 353d
00000390: 4f33 483e cba4 05be 8a16 343e cd15 debb
000003a0: 4d1c 37bc 2fc5 06be 9393 72bd d040 adbd
000003b0: 584a 27be 4de8 ae3d 80f3 a43c 879e 1e3d
000003c0: 108a fcbd a0cc 223e 00fc 61bc 00dd 5f3c
000003d0: cd12 9cbb 1a7c a1bd dff2 313e 4db6 cfbc
000003e0: 2532 0f3e 9234 20be 4d84 a23c 1253 463e
000003f0: 6d2d 593d 2be6 3ebe c0f7 f03d 5ae7 3a3d
-0.10534914 -0.08113692 0.014302588 0.071960546 0.0083513735 -0.10912178 0.087038636 0.1723157
-0.050468087 -0.043615628 0.19756079 -0.11852787 -0.02228198 0.06720915 -0.16439791 -0.033229183
-0.110171154 0.07547629 -0.06235049 -0.032010388 -0.119937636 -0.17993891 0.09576366 0.18336128
-0.013831831 0.06554735 0.096439555 -0.03848672 -0.008275247 -0.15573739 -0.0025048018 0.10015481
-0.074725345 -0.08353143 0.10549121 0.09717295 0.04387002 0.010608125 0.046629574 -0.07578025
-0.07658751 -0.1749583 0.117751956 0.18541096 0.09035366 0.07277339 -0.094333075 -0.122798085
0.16222785 -0.1287651 -0.16909845 -0.10952597 0.058804728 0.18415478 -0.06250677 -0.1821324
-0.119279556 -0.02910092 0.1738349 -0.010812998 0.023399258 -0.11634467 0.17998874 -0.090143226
-0.18599813 -0.13428192 -0.08928368 -0.06688831 -0.05931766 0.06628039 0.1939141 -0.18656042
0.14590521 -0.03470185 0.12520269 0.0932215 -0.10815988 0.19151221 -0.0048634293 -0.14979747
0.126115 -0.07954984 -0.1643375 0.13263543 -0.061148096 0.024562335 0.1462078 -0.043469857
0.01970296 -0.07067292 0.038919996 -0.05996356 0.06870504 0.06873579 0.06385217 -0.1758248
0.123914175 -0.03733764 0.0549726 -0.101624034 -0.1275976 -0.054730654 -0.14890967 0.0069289445
0.017788267 0.16542926 0.10103629 -0.1653229 -0.06571882 -0.06422009 0.033397295 -0.14187334
-0.0003996849 0.08686223 -0.16621287 0.012364889 0.10263369 0.01670952 0.0020910501 -0.16070071
0.15990637 0.17167173 -0.015147805 0.001701355 0.119812585 0.12134116 -0.02392242 -0.038758017
-0.00076975825 -0.13925748 -0.03381748 -0.15103261 0.0080217365 0.03347237 -0.18391888 0.036432482
0.19270137 -0.19839466 -0.036945462 -0.13175288 0.06993389 -0.14256385 0.19480227 0.11708786
-0.07446525 -0.10863409 0.19634013 0.1862336 0.09867547 -0.17654638 -0.06559844 -0.083883286
0.12000699 -0.18952005 0.04573653 0.18093555 -0.09172852 0.058956575 -0.1919146 -0.16974469
0.06876762 -0.08245857 0.14263462 -0.0051723006 0.069419816 0.18606308 -0.003660822 0.18981445
-0.18994 0.10022221 -0.1619693 0.18676212 -0.056881737 0.017699052 0.13184257 -0.14797871
-0.15966852 -0.08373082 0.048594903 0.037117746 -0.1403795 0.06847711 0.17087102 -0.06510832
-0.17314263 0.095287226 -0.19401406 0.06318843 0.11857238 0.0011080027 -0.046825793 0.05152297
-0.14816797 -0.17669187 -0.0055999043 0.13575433 -0.13915251 -0.11294134 0.07786105 0.040076878
0.11376586 0.077174686 -0.16779864 0.0110027315 0.002272439 0.1229347 -0.09118753 -0.038310267
0.19727497 0.007437444 0.052287437 -0.00059928896 0.04914844 -0.18691602 0.116939805 -0.09709995
-0.1260202 0.043523457 -0.08620687 -0.12599154 -0.0038987398 0.16267543 0.13985014 -0.1861469
0.18099013 0.016631817 0.026734902 0.04437926 0.19550823 -0.13051145 0.17586723 -0.006777501
-0.011176181 -0.13161157 -0.05922277 -0.08459628 -0.16336954 0.085404016 0.020135641 0.038725402
-0.12331021 0.1589837 -0.013792992 0.01366353 -0.0047629834 -0.078849986 0.17377804 -0.025355482
0.13983972 -0.15645054 0.019838477 0.19367626 0.053021837 -0.1864249 0.117660046 0.04563079

weight_hh_l0 f4 [25, 25]
00000000: 4fa2 18be d736 a63d b746 c0bd 0711 46bd
00000010: c0d5 5abd cd5c dab9 0a0e 433e aa36 cd3d
00000020: 402a 29be 70fd c93d 22a4 493e 6707 6abc
00000030: ba26 febd 53cd 14be d777 203e 7a90 21be
00000040: 80ef 4dbc 2d03 23be e383 35be 07b4 9ebd
00000050: 3316 f8bc 8b8d 1f3e 604e 1dbd 3af1 153e
00000060: 30c3 b73d 005c 67bc 1a74 a0bc 43c7 28be
00000070: 0006 d63b c7f6 963d 1078 023e 9706 4abe
00000080: a5f0 23be 33e3 643a 006b d83c 8834 05be
00000090: a092 8ebd 5a65 81bc 0d4b 0ebd 8a7d cb3d
000000a0: 738e f3bd 008d 4ebd dbcd 3f3e bdfd 98bd
000000b0: 9a90 63bc 3a1d 433e a738 b8bd 275b f7bd
000000c0: b55a 253e 1a86 e33c 9070 b7bd 70dc ccbd
000000d0: ba15 8c3d 0dcd 41be b0b7 89bd 5fe0 073e
000000e0: 7008 38be dd46 373e e77e 6cbd 6f3c 0cbe
000000f0: 88fd 13be 0075 a3bd cb47 1e3e 2748 83bd
00000100: e747 643c ba93 92bd 2f1b 47be ba56 5abd
00000110: 18be 22be 87e2 05be a7ff 8b3c edc5 c63d
00000120: 25b5 263e 2882 0a3e 9a89 bd39 0056 d63b
00000130: daa1 f63d 5a3c 8b3d 2309 babd 9ae9 bcb9
00000140: da79 1a3e d310 abbd 33d3 df3a fa74 7cbd
00000150: 739b 0bbd 9b13 19be 98de 37be a0e1 103e
00000160: 7fcf 15be cd39 05bc b3c1 92bc 65ab 103e
00000170: 73e0 67bd 2d1a 033e 0afd 3d3e 5041 f3bd
00000180: 67c9 43be 4f10 443e 603e 11be af09 13be
00000190: 339c a93d d362 1c3e aa65 36be da76 13bd
000001a0: 7826 47be 8ded 253e 1f0e 0b3e 25d9 2c3e
000001b0: 1a2d 0fbc 1356 643d 330d f63d 75ae 4b3e
000001c0: e752 36bc 13c3 02be 37a2 94bd b3bd 51bd
000001d0: df4e 3c3e d03f 89bd 2021 683d 5a4b fabd
000001e0: a002 2b3d 0d8a cdbc 9a23 4cbd ad98 073e
000001f0: 473b 193e 8535 433e 6397 38be 107e f33d
00000200: fd79 cd3d 8348 943d 505f 253e 63d8 343e
00000210: 7770 3ebe 2305 3f3e bf06 203e e807 363e
00000220: 4013 debc 7336 083d 9ad6 113e f39c 58bd
00000230: 8355 9ebd b36a f93d 20f9 e0bd 00f6 3ebb
00000240: 4d83 633d 1753 b73d cae7 2dbe 671c 923b
00000250: e73d 38be ca8b 493e e774 48be caaf b23d
00000260: 58ed 473e 8772 793d 9af2 4b3d 9b84 45be
00000270: dd6e 053e ab34 203e 600b 4a3e c3a3 303e
00000280: cbb0 2e3e 4314 adbd 6046 d83d e779 b3bd
00000290: b5af 313e 403c 23be ddbf f63d 4a81 b2bd
000002a0: 436a 19be 8039 b8bd 03a7 c53d ffa4 46be
000002b0: cd2a 883d b0be e0bd 0011 c23b a7e2 9abc
000002c0: b7a4 acbd da7d b8bd a2d9 2dbe d3ff adbd
000002d0: fb95 06be d3fe 243e 008b de3b 2a62 4cbe
000002e0: da60 043d 6d2b 0dbd ad69 8e3d 4a92 9b3d
000002f0: aa65 bd3d 605a 3a3e 4d30 7bbd 2d01 de3d
00000300: 90f7 3e3e b780 1e3e 6838 2d3e 6d84 333d
00000310: 3f77 1dbe 951e 0f3e 17b6 fb3d 5dfc c63d
00000320: cddc 293a 45d3 16be e0cf 2bbd bd76 d2bd
00000330: f373 2b3e a298 07be cde9 51bc 23b9 963d
00000340: a7a0 a03d 7ae3 f13d 93b0 183d 6d5e 463d
00000350: cde9 dcbc eb40 373e aaa2 2dbe 3798 2dbe
00000360: 00d2 be3d b70b b2bd f867 14be c7f4 fc3d
00000370: 5347 5a3d 6386 ba3d 6776 18bb e079 ab3d
00000380: 3a45 e33d 9a44 163c e005 0bbe 9aeb 5e3c
00000390: e7f7 063d da1d 30bd b78c 003e 0060 e0ba
000003a0: 07b4 7abd 026d 0f3e fae8 223d 8dae dc3c
000003b0: b85b 213e 20c5 f4bd 2ddc 06be c0aa 2f3e
000003c0: d7ba c03d 907d f7bd 7a5a 39be 77f0 f0bd
000003d0: e08e 70bd 0dd0 263d 2a91 9bbd d7ef 2bbe
000003e0: d398 09bd baef 67bd 6044 183e a702 54bd
000003f0: 43b8 edbd ad65 273e e74d 8c3c e7f6 033e
-0.14905666 0.081159286 -0.09388488 -0.048356082 -0.053426504 -0.00041649342 0.19048324 0.10020192
-0.16520023 0.098627925 0.19691518 -0.014283991 -0.1240973 -0.1453145 0.15670715 -0.1577777
-0.012569308 -0.1591918 -0.17726092 -0.07749181 -0.030284023 0.15581338 -0.038404822 0.14642802
0.08972776 -0.014121056 -0.019586612 -0.16482262 0.006531477 0.07371288 0.12741113 -0.19729076
-0.16009767 0.0008731365 0.02641821 -0.1300832 -0.0696156 -0.015795399 -0.034739543 0.09936054
-0.118924044 -0.050427437 0.18730871 -0.07470272 -0.013889456 0.19054118 -0.089951806 -0.12077933
0.16147883 0.027773906 -0.089570165 -0.100029826 0.068400815 -0.18925877 -0.06724489 0.13269185
-0.17971969 0.17898126 -0.05773821 -0.13694929 -0.14452183 -0.079813 0.15457074 -0.06410246
0.0139331585 -0.07157083 -0.19443963 -0.053305365 -0.15892828 -0.13074695 0.017089678 0.0970572
0.16280039 0.13526213 0.0003615141 0.0065410137 0.120425895 0.067986205 -0.09083774 -0.000360322
0.15085545 -0.08352818 0.0017076492 -0.061634995 -0.034083795 -0.14948885 -0.17956007 0.14148569
-0.14629935 -0.008131457 -0.017914629 0.14127882 -0.056610536 0.12802954 0.18553558 -0.11877692
-0.19119798 0.19146846 -0.1418395 -0.14359163 0.08281746 0.15272073 -0.1781222 -0.036002018
-0.19448268 0.162039 0.13579606 0.16879709 -0.00873878 0.05574615 0.12014236 0.19890769
-0.011128164 -0.12769727 -0.072575025 -0.051206302 0.18389462 -0.067016244 0.056672215 -0.122214034
0.04175055 -0.025090242 -0.04983864 0.13241835 0.14964019 0.19063385 -0.180265 0.11889279
0.10033033 0.07240393 0.1614964 0.1766067 -0.1859759 0.18654303 0.15627573 0.17776453
-0.027108788 0.03325505 0.1424202 -0.052884053 -0.07731154 0.121785544 -0.10985017 -0.0029138327
0.05554514 0.08951395 -0.16982952 0.004458952 -0.17992364 0.19682232 -0.19575845 0.08724935
0.19524133 0.060900237 0.04979191 -0.19288866 0.13030572 0.15645091 0.19730902 0.1724997
0.17059629 -0.0845113 0.10560298 -0.087634854 0.17352183 -0.15940952 0.12048314 -0.08716066
-0.14981942 -0.08995342 0.096509956 -0.19398879 0.066487886 -0.10973871 0.0059224367 -0.018906904
-0.08429854 -0.09008379 -0.16977552 -0.0849606 -0.1314315 0.16112833 0.0067914724 -0.19959322
0.032318927 -0.034465242 0.0695375 0.07596262 0.092479065 0.18198538 -0.06132536 0.10840068
0.18649125 0.15478788 0.16916049 0.043827463 -0.1537752 0.1397651 0.1229059 0.09716103
0.000647974 -0.1472903 -0.041946292 -0.10276554 0.1674345 -0.13241819 -0.01281209 0.07359531
0.07843142 0.11810966 0.03727777 0.048429895 -0.026966954 0.17895858 -0.16956583 -0.16952597
0.09317398 -0.08693641 -0.14492786 0.12351375 0.053290676 0.091076635 -0.0023263933 0.08372855
0.11097188 0.009171629 -0.1357646 0.0136059765 0.03295126 -0.04299722 0.12553678 -0.0017118454
-0.061206844 0.14006427 0.039772965 0.026938701 0.15757644 -0.11951661 -0.13169928 0.1715498
0.09410637 -0.12084496 -0.1810092 -0.11764615 -0.058730006 0.040725756 -0.07596047 -0.1679071
-0.03359301 -0.056625105 0.14869833 -0.051760342 -0.11607411 0.1634738 0.01712699 0.12887155

bias_ih_l0 f4 [25]
00000000: a727 6dbd 8a9c 86bd 7816 04be 5005 a43d
00000010: 52a4 3e3e c0c1 d7bd 0d4b 10bd 8d80 30be
00000020: 2ae7 d73d 50ca 14be adbc 34be fff3 07be
00000030: d8ae 3a3e 6d7e b33d 3a16 ed3d 1d55 0fbe
00000040: 9aa4 393e 6db7 343d a7a2 43bd 7d3b a8bd
00000050: e3c2 d1bd 60f8 743d 8038 cc3d ba07 103d
00000060: 3b22 2cbe
-0.057899144 -0.06572826 -0.12899196 0.08008826 0.1861737 -0.10535002 -0.035227824 -0.17236538
0.10542138 -0.14530301 -0.17650099 -0.13276671 0.1823076 0.08764348 0.11576505 -0.13997312
0.18129197 0.04412024 -0.04776254 -0.082144715 -0.1024225 0.05980718 0.09971714 0.03516362
-0.16809933

bias_hh_l0 f4 [25]
00000000: 0841 23be 1048 f5bd 409f ee3d 0aff 9dbd
00000010: 9d2a 493e d7ec d6bd 0579 39be 33dc 63bc
00000020: d0b1 e8bd 4206 313e 00b8 263d e219 12be
00000030: 2d04 293d 0718 41bd 074d ddbd 70fc 2abe
00000040: 309f cf3d 7d0b d2bd fde6 96bd 3ae0 cdbd
00000050: 47a5 cd3d 074f 15be 40a4 1c3e eb50 45be
00000060: 4712 04bd
-0.15942776 -0.119766355 0.11651468 -0.077146605 0.19645162 -0.10494392 -0.18112572 -0.01390748
-0.1136204 0.17287543 0.04070282 -0.14267686 0.041263748 -0.047142055 -0.108057074 -0.1669786
0.101377845 -0.102560975 -0.07368276 -0.100525334 0.1004129 -0.14580928 0.15297031 -0.19269149
-0.032243993

weight f4 [14, 25]
00000000: 3256 213e d32d 6b3d 8dab 663d 338a 8d3c
00000010: cf74 183e c36a c7bd b380 033c 5b87 213e
00000020: c3de c73d b3ea 303d 2d64 d6bd 1231 2c3e
00000030: 737c a4bc 8dc7 f73c 2d80 9f3d 2775 343e
00000040: 9ac9 c739 33aa 353d 83e2 843d 179e 30be
00000050: e7e5 f33d b3ad 8d3d 07fa 31be aaa8 b03d
00000060: 7d11 273e 851a 403e d84f 323e cddc a2b9
00000070: a3f6 1cbe e887 2d3e f3db fc3c 8724 3bbd
00000080: 1a57 223d dfe3 283e 33b3 78bd 0079 d03b
00000090: 8ac7 d93d e27a 2ebe aa95 ff3d 0d9d 13bd
000000a0: d766 f6bd 5a48 6b3d 1a62 b8bc ebe6 40be
000000b0: 936e d9bd 0dab 723d 5b51 17be c763 45be
000000c0: 80ac acbc 409e b3bd f358 a73c d24a 17be
000000d0: 8a1f 8cbd 9052 45be 1d58 c3bd e866 2bbe
000000e0: b3b5 1a3c e275 023e 7aab 19bd 00e2 d63b
000000f0: 3a7d 2abd d7d6 e1bd 329b 1abe aaac 273e
00000100: b3bc 1d3e 18b2 3a3e d771 44be ba1c fa3d
00000110: fafb 253d f29f 2cbe 67c3 5ebd 57fc f23d
00000120: cd54 5dbb efdc 2a3e da88 223e b740 203e
00000130: f055 e33d 33e7 e83a 1ddf 32be adb3 de3d
00000140: 1af2 b2bd 1d26 2bbe 008d c3bc 33c2 0ebe
00000150: b379 d0bc 8264 0dbe 6353 323e 0067 ecbc
00000160: a825 30be e292 353e 6794 05bb daca 1e3e
00000170: 3d14 403e 1dc9 36be c0ef 743d 07fb 38bd
00000180: e76a ebbc 00f8 1f3b 0752 ec3d a5e0 2c3e
00000190: 9ad8 27bc 772a acbd 1546 363e a593 273e
000001a0: 23d5 d6bd 008a 413c 2763 68bd bdb6 49be
000001b0: 7ad7 a23d 9a62 6abd c7bd 583d 67b6 2b3c
000001c0: 1fff 44be 7a34 d73d 5d4d 373e 6d45 813d
000001d0: 6d8d 273d c0e0 ff3d 8aa1 e4bd 93b8 a8bd
000001e0: 67ef 153c 8d6f bc3d 1a12 6b3d 4d15 6a3d
000001f0: 55d4 403e 1f29 01be b000 a63d e0d7 d0bd
00000200: adcd d5bd 33b1 08be ad43 793d ca48 09be
00000210: 2015 23be 9726 803d 1a93 2b3d f70b ab3d
00000220: 47a9 c03d ab3a 0abe 2aa9 8fbd 40a0 94bd
00000230: 33a5 023c 539b 853d ba0d fabd c794 dabd
00000240: 873b 20bd 4d86 11bd 4a4a 8d3d 3339 a13b
00000250: 336f 7c3b 0899 333e ba2b 893d 0bac 38be
00000260: 2b8c 373e 4d10 2e3e d372 97bd 526a 06be
00000270: 80ae 7fbd 0dee 0f3d ddfb 1cbe 2249 083e
00000280: 0d08 bb3d 2731 223e 9a08 583d cdba e7bc
00000290: 7374 cfbc 4748 08be f5e7 443e e591 323e
000002a0: 4736 40be 93f2 293e ad5f 3fbe 33e3 96ba
000002b0: 42e3 18be 8830 113e c8db 28be faf5 24bd
000002c0: 3d3c 1fbe 8a73 a63d 5357 453e f3b6 7cbd
000002d0: e7ec a73c 2d73 243e 1ab9 0dbc 27e4 d7bc
000002e0: 1564 39be 538c 973d a02b 0c3e 4d38 23be
000002f0: c07a 68bd 0a55 1bbe 3524 123e 575e 41be
00000300: 4afc 9bbd 077c 4b3d fd74 e5bd 8056 003d
00000310: b3a1 e43d 9340 223d 1dfb ebbd f0a8 9c3d
00000320: 8785 413e 9085 34be 5dff 8dbd 43b2 d03d
00000330: 8088 7cbd 1f54 373e 4dc9 bb3d a78c 173d
00000340: 20a8 1ebd 87f0 02be 0d87 e1bd 0213 30be
00000350: d704 13be 9030 983d 4307 3c3e b037 223e
00000360: 40c5 00bd 9071 f13d 4719 d13d c82b 103e
00000370: 6d70 cebd da1f b0bd e704 ebbc 838b 13be
00000380: cdbe 29be 3d25 1e3e 42b5 133e 5a30 10be
00000390: 1833 1abe 47cc 013e efb2 43be 9309 ce3d
000003a0: 401c 45be da3d fbbc 3d06 093e ad3d 383e
000003b0: 23e2 bdbd ead7 fdbd 9fcb 0e3e fdf0 a03d
000003c0: 427b 3c3e 178b 023e 1abd febd 4f99 213e
000003d0: 1028 b2bd 33ed eebb d0f3 f83d 10d3 afbd
000003e0: cf3f 47be 43cb f9bd 7a66 7e3d 12fa 3abe
000003f0: d336 46bd 7044 c63d fdc6 acbd 33fb 193d
0.15755537 0.05741675 0.056315947 0.017277813 0.14888309 -0.0973716 0.00802629 0.1577429
0.09759285 0.043192577 -0.10468326 0.16815594 -0.020078873 0.03024652 0.077881195 0.17622815
0.00038106443 0.044351768 0.06488516 -0.17247806 0.11909085 0.06917896 -0.17380534 0.0862592
0.16315265 0.18760116 0.1741327 -0.00031063557 -0.1532846 0.16946375 0.030866599 -0.045689132
0.039633848 0.16493176 -0.060717773 0.0063620806 0.10633762 -0.17039064 0.12479718 -0.036038447
-0.12031334 0.057442047 -0.022507716 -0.18838088 -0.106167935 0.059245158 -0.14777128 -0.19276343
-0.021078348 -0.08770418 0.020428156 -0.14774635 -0.06841953 -0.19269776 -0.09538291 -0.16738474
0.0094427345 0.12740281 -0.03751705 0.006557703 -0.04162333 -0.110273056 -0.15098265 0.1637446
0.15404014 0.18232 -0.19184051 0.122125104 0.040523507 -0.1685789 -0.05438557 0.11864536
-0.003377247 0.16685842 0.15872517 0.15649687 0.11100376 0.0017769098 -0.17467923 0.10874114
-0.087375835 -0.16713758 -0.023870945 -0.13941269 -0.025448656 -0.13807872 0.17414622 -0.028857708
-0.17201865 0.17731813 -0.0020382644 0.15507069 0.1875772 -0.17850156 0.059798956 -0.045161273
-0.028737498 0.0024409294 0.11539083 0.1688257 -0.010244513 -0.08406537 0.17800172 0.16364916
-0.10489871 0.011812687 -0.056735184 -0.19698615 0.07951255 -0.05722294 0.05291536 0.0104805
-0.19237946 0.10508056 0.17900605 0.0631207 0.04090636 0.124940395 -0.11163624 -0.0823833
0.009151316 0.09200964 0.05739031 0.05714922 0.18830998 -0.12613343 0.081056 -0.10197425
-0.1043962 -0.13348846 0.060855556 -0.13406673 -0.15926027 0.062573604 0.041888334 0.083518915
0.09407287 -0.13498943 -0.07014687 -0.07257128 0.007973957 0.06523766 -0.122096494 -0.10672908
-0.03911927 -0.03552847 0.06898935 0.0049201488 0.0038518428 0.17538846 0.06697793 -0.18034379
0.17924564 0.16998406 -0.07394948 -0.13126495 -0.062422276 0.035139132 -0.15330453 0.13309148
0.09132395 0.15839063 0.052742578 -0.028287316 -0.025324082 -0.13308822 0.1922911 0.17438467
-0.18770705 0.16596441 -0.18688841 -0.0011511802 -0.14930442 0.1417867 -0.1649009 -0.040273644
-0.15550323 0.08127506 0.19271593 -0.06169791 0.020498706 0.16059561 -0.008650089 -0.026353909
-0.18104585 0.073998116 0.13688517 -0.15939446 -0.05675769 -0.15169159 0.14271624 -0.18883644
-0.0761648 0.04967883 -0.11203954 0.031332493 0.11163654 0.039612364 -0.115225054 0.0764941
0.18898593 -0.17629075 -0.06933472 0.10190251 -0.061653614 0.17903183 0.091692545 0.03699937
-0.038734555 -0.12787066 -0.11012087 -0.17194751 -0.14357315 0.074311376 0.18362145 0.15841556
-0.031438112 0.117892385 0.102098994 0.14079201 -0.10080037 -0.08599825 -0.028688861 -0.14408688
-0.16576691 0.15443893 0.14424613 -0.14080945 -0.15058553 0.12675582 -0.19111226 0.1006042
-0.19249058 -0.030669142 0.13381286 0.17992277 -0.09271648 -0.12394698 0.13944863 0.07858465
0.18406394 0.12748371 -0.12438412 0.15781139 -0.086990476 -0.00729146 0.121558785 -0.08585179
-0.19457935 -0.12196972 0.062109448 -0.18259457 -0.04839213 0.09681022 -0.084363915 0.037593078

bias f4 [14]
00000000: 927f 323e 6acc ba3d c700 463e 9acd 723c
00000010: 8006 383c 8a65 2b3e 4000 573d 2785 d2bc
00000020: 4373 353e 80a2 983c 3fb0 0b3e 3358 c1bc
00000030: 90f1 b73d b3eb 2fbc
0.17431477 0.0912102 0.19336234 0.014819527 0.0112320185 0.16737953 0.052490473 -0.025698258
0.1771975 0.018632174 0.13641451 -0.023601627 0.08981621 -0.010737347
