blob_checkpoints/RNN/checkpoints/last-epoch=99.ckpt (torch, 45722 bytes, 18 tensors)

rnn.weight_ih_l0 f8 [25, 18]
000000 07 23 22 27 73 4a 74 bf 2f 7b fc a7 48 33 9f bf
       -0.004953813377263533 -0.03046906972223978
000010 c9 96 5d 92 8f 29 b1 bf 43 01 ac 53 b3 72 bf 3f
       -0.06704041789415806 0.12284394066592079
000020 d9 f7 5c 98 5c 8f b5 3f 27 97 21 0e c9 e8 99 bf
       0.08421877593806872 -0.025302068221569798
000030 c4 f3 52 02 fe f2 b6 3f 3e 15 55 6e f4 50 c1 3f
       0.08964526707400383 0.13528304469415703
000040 db 06 a3 41 e1 d8 b5 bf df 1e 4a d6 45 78 73 bf
       -0.08534057476483829 -0.0047533729563224705
000050 5b a2 0f 63 5b db c4 3f d2 fe 53 ec 25 51 b1 bf
       0.16294424378363 -0.06764447231034446
000060 54 0e 42 cc e1 d8 8c 3f f8 a9 a8 f2 95 e6 9e 3f
       0.014085544630012915 0.030176489768715314
000070 18 c3 9c 02 f7 d6 bb bf 89 b2 c2 d4 0f e7 b1 bf
       -0.1087488538148701 -0.06993197388028184
000080 2c a4 76 f7 f1 ad c2 bf 07 6d d8 ee 66 ce c0 3f
       -0.14593338568855196 0.13129889166234696
000090 e9 f0 6f dd 4c 10 c0 bf 52 fd f0 49 fa 73 b8 bf
       -0.12549744427076995 -0.09551967911919704
0000a0 91 36 15 e2 ee c1 d0 bf eb cc 4a 7f eb 44 d0 bf
       -0.261836739334151 -0.25420653754117833
0000b0 48 61 95 5a 4a 6c 69 bf f4 de 14 c7 c7 dd b0 3f
       -0.003103394720408801 0.06588410005940287
0000c0 77 2f ee d3 a6 74 c1 3f 16 d3 96 5d fc 9d b8 3f
       0.1363724264923538 0.09616067204371989
0000d0 21 bb bf c6 6e 2e b1 3f db 6f 82 90 ba 79 aa 3f
       0.06711475708264604 0.051709966793367555
0000e0 6c dd 46 dc 17 1f a3 bf e9 99 95 de cd 70 cd bf
       -0.03734659732748011 -0.2300050103032867
0000f0 f0 35 6b 1c 3d f8 82 3f 90 69 cb 9e 02 bd c0 3f
       0.00926254027344961 0.1307681346286924
000100 c4 3f d1 46 0b 83 80 3f 54 6f 0f 96 c9 ec aa bf
       0.008062446688342002 -0.05258779484549217
000110 47 b5 15 e0 8a dc bf 3f a0 fd 21 74 c9 0c c7 3f
       0.1244589612085366 0.1800777260832378
000120 77 ee e5 e3 ad c5 ac 3f 82 fa af dc da db 6d 3f
       0.05619567305526812 0.003644874062501303
000130 41 6e c6 24 ba 1b c1 3f 6e 68 b7 16 84 b7 b7 bf
       0.1336586646619811 -0.09264398150063055
000140 af 0c 10 10 44 35 b7 bf e8 cc 91 1a 7f 6f c0 bf
       -0.0906565226760445 -0.12840260312405083
000150 ac 42 6a ad f7 45 9d 3f 4f 77 c8 7b 89 6e ca 3f
       0.02858721729222917 0.20649832290740242
000160 a4 b2 08 b0 94 cb b6 3f e9 18 dc 16 9b 11 a4 3f
       0.08904389665321816 0.03919682172822709
000170 31 02 fe eb d3 7e b8 bf 33 b4 5b 3b 70 e0 c1 bf
       -0.0956852389481433 -0.13966181658125407
000180 76 15 74 97 ea 77 7d 3f 4f 11 6f c8 c4 90 bb bf
       0.007194439290519985 -0.10767774480252011
000190 e2 36 9f 22 e6 8c c2 bf 54 12 99 9b 21 93 b6 bf
       -0.14492489519618973 -0.08818254517343266
0001a0 c8 9b eb 09 36 7c ae 3f 49 30 5c 77 f2 ad ca 3f
       0.05954140540216418 0.2084334452450796
0001b0 6e c9 88 cc 49 92 b8 3f 18 b3 bb fa 6a 9e c5 bf
       0.09598218196405181 -0.16889703028518777
0001c0 cd 57 58 06 a1 1c b6 bf 2e 63 c6 21 5f c3 86 3f
       -0.08637434391889016 0.011114829271535589
0001d0 c4 fd 2a a7 35 d9 c6 3f 6c 8a ad 72 ce 77 80 bf
       0.17850371038910684 -0.00804101264447362
0001e0 16 23 42 9a 76 e6 a2 3f 01 5f ee 83 a6 91 ac bf
       0.03691454537426446 -0.0557987247513534
0001f0 c5 fb 21 73 57 eb c8 3f 51 fb 47 cf f4 35 b2 bf
       0.19468205568042954 -0.07113580761504791
000200 51 bd ae cc 7a ed c5 bf f8 32 c7 73 b8 14 b8 bf
       -0.17130980486170214 -0.09406616999258322
000210 58 53 b5 54 75 8f b6 bf 74 f6 72 1f 74 fa 79 bf
       -0.08812650030206493 -0.0063423667954204295
000220 a3 15 11 9c fe e3 b8 3f 33 c3 9c 07 e1 50 c0 3f
       0.09722892103407914 0.12746823188492726
000230 a9 0e 57 29 5b 6d c9 3f dd 22 77 0e 4c 6e 9e bf
       0.19864978331144315 -0.029717625029465167
000240 30 08 e3 de ff 2d c3 3f 88 e1 52 ef 1f 85 a9 bf
       0.149841293174235 -0.04984378620560209
000250 ed 72 63 5e 26 8c b7 3f 90 74 95 a4 4f 14 c0 3f
       0.09198226742178024 0.12561984573668328
000260 ce 77 ce 3e 46 f3 8d 3f e0 6b 26 21 a0 c0 c8 3f
       0.014624165336325403 0.1933784639230387
000270 2e 68 fb 79 08 2a c4 bf 93 79 9d d1 80 d3 c1 bf
       -0.15753274875788875 -0.13926706538309172
000280 a2 81 81 da c5 43 bc 3f 0e fc 18 19 a2 32 a1 bf
       0.11040913185707393 -0.03358942562453403
000290 d2 59 9a a0 69 06 c7 bf 97 74 95 a4 d3 1f c5 3f
       -0.17988319723072138 0.16503377472227918
0002a0 8d 72 34 44 5f 6e be bf 85 19 8a e9 ac f7 a1 3f
       -0.11887164511831312 0.035092738636239885
0002b0 c7 55 d6 a3 bf 14 96 bf ba c0 ec d0 7c dc a0 bf
       -0.021563524603683406 -0.03293218660690074
0002c0 0b 91 71 19 a0 36 b9 3f 11 06 1c 4a 42 85 ce bf
       0.09848976727659335 -0.23844174021364542
0002d0 27 f8 d1 eb 72 63 a2 bf 74 ec 77 e9 79 ce bc bf
       -0.03591498497642958 -0.11252557706750271
0002e0 85 34 49 15 9e d2 c0 3f f3 45 0f cb 0b 24 77 3f
       0.13142753638604546 0.005649610583490883
0002f0 ca 11 6b 19 3a 58 af 3f bc 3d d2 11 e5 b3 b3 bf
       0.0612199932125211 -0.07696372685517522
000300 8a 06 56 1d e8 59 b8 3f 07 d8 c9 45 c0 76 a3 bf
       0.09512186733447883 -0.0380153737250311
000310 c9 f2 d2 19 d9 cd 6e 3f 46 0e 57 32 41 91 c3 bf
       0.0037602653743234776 -0.15287032087336366
000320 95 31 0d 23 bd ec c6 bf d2 0b 4f 83 3e 29 be bf
       -0.17909969531536932 -0.11781683641224497
000330 43 3a 4b e5 c7 23 b2 bf b2 3f b1 31 de 9a 79 3f
       -0.07085847232813429 0.006251209207292096
000340 db fb 3b db ef 13 a7 3f 17 a8 f7 3a f5 0a c5 3f
       0.04507398177337737 0.16439690951602934
000350 34 03 b8 0b 62 d1 bb 3f 80 16 b0 a7 2c b1 c1 bf
       0.10866368089774597 -0.13821943462260222
000360 a0 3d be 1b 7e 5e 8b 3f fe 2e a8 32 ed 38 b0 bf
       0.013363824102070876 -0.06336863028280601
000370 8b d9 fb 1a 54 0d b3 bf ba 06 4c 2b 86 a5 b3 bf
       -0.0744221273306264 -0.07674444729857557
000380 ca 75 dd 32 a7 2c 79 3f 1d 8a 3b 9d b8 82 c4 3f
       0.0061461001585860296 0.16023929288265118
000390 30 d1 d2 a5 c0 8f cb bf ba 3b 8e df ef 84 b2 3f
       -0.2153244790730553 0.07234095771694529
0003a0 3c b8 bc c6 42 96 b4 3f 11 d0 53 b3 81 36 b0 3f
       0.08041779853803716 0.0633317053614635
0003b0 47 0d e7 d1 da 79 94 bf f1 05 4c eb 64 77 b8 bf
       -0.019996089040217126 -0.095571811147259
0003c0 48 ba 93 cf dd 0f cb 3f d4 1d c7 9b a2 a6 cd 3f
       0.21142170558546725 0.2316478024133476
0003d0 12 d7 bd b9 42 fe a6 bf 4a 64 af 5a 63 87 af 3f
       -0.04490860478737892 0.06157980424877303
0003e0 fd 44 78 13 1a 19 ca 3f 34 ca 09 b7 e8 6e b7 3f
       0.2038910479609867 0.0915360876913745
0003f0 c3 c9 2c 85 43 13 c2 3f c3 22 85 87 42 16 6c 3f
       0.14121288302119525 0.0034285830880985426
000400 36 02 41 ae f3 62 a1 bf c2 e0 5a b8 35 93 af bf
       -0.03395806791423121 -0.061669996980926026
000410 85 60 2d 89 f1 8c 99 bf a1 f8 37 25 e1 e9 b8 bf
       -0.024951719281802304 -0.0973187175622763
000420 e4 18 50 ec c7 31 a8 3f 09 2d b1 41 d4 74 b4 3f
       0.047254798504626355 0.07990767101107478
000430 65 d5 12 2e 44 35 c7 bf 9d 07 e8 2e 87 c4 8d 3f
       -0.18131305932699174 0.014535003775566763
000440 4e fc 6c 58 b4 0d c9 3f 45 70 2d 1c 38 ed be bf
       0.195730727364181 -0.12080717742850407
000450 f6 0b 06 f9 b2 b1 bd bf f3 d2 4e 6e 5f d7 b5 bf
       -0.11599272327116225 -0.08531757777275199
000460 8a 4c e3 74 88 f5 9d 3f 78 10 dd b5 fc 90 b8 bf
       0.02925694669177096 -0.09596232833888674
000470 60 58 8d 9e 07 d5 c5 3f 8b f9 a0 e0 49 95 b3 3f
       0.1705636524372407 0.07649671300985099
000480 f4 2b 52 c4 77 29 cb bf c0 84 8c 43 b5 55 b7 bf
       -0.2122029980276633 -0.09115155123847085
000490 6e 5b a5 c5 7c a9 b3 3f f6 2b de 29 1d 15 c5 3f
       0.0768049223455429 0.16470684570626276
0004a0 9d 4f fe cd 40 ac 87 3f 15 81 e6 2f 30 f6 ce bf
       0.011559015547199009 -0.2418880685700137
0004b0 9b 9f ba 22 e1 6f c1 bf ba 23 f1 09 93 1e bf bf
       -0.1362267894339738 -0.12156027786944792
0004c0 b7 f7 a6 d0 1f c6 b5 3f 74 1b 84 4f 07 2c c5 bf
       0.0850543865589931 -0.16540614493007022
0004d0 5b 35 bf ad 42 27 86 3f c8 2b de e9 81 67 c4 3f
       0.010817070891699634 0.15940879744843373
0004e0 f1 60 68 52 e5 93 ac 3f 26 71 3b 98 50 ca 95 3f
       0.05581585532144285 0.02127958230163176
0004f0 81 05 33 9d 7f e3 ca bf ad 57 7b 10 2c 8c ca bf
       -0.21006770301577762 -0.2074027138211795
000500 9d 67 b5 c8 71 30 92 3f ed 81 f9 a7 cb c2 b9 bf
       0.01776292598274375 -0.10062859393065766
000510 ce fd 9f 66 3c 19 9a 3f ae d8 40 7e 74 0f 5b bf
       0.025486892474871507 -0.0016516339901620314
000520 40 e2 19 1a 9f 8f 90 3f a2 80 0c 07 c3 f8 c9 3f
       0.016172872512898673 0.20290410846883328
000530 ae 2f e1 5c 60 72 a3 bf 6e 31 05 a2 09 a2 cb 3f
       -0.03798199781212418 0.21588249598643067
000540 56 99 35 0c 94 a2 d1 bf a5 b4 81 b1 fc 8d b9 3f
       -0.27554799263306984 0.09982280095728642
000550 d4 99 fb 3a 12 74 b8 bf 7a d9 6f 74 23 23 c0 3f
       -0.09552110614786297 0.1260723417796717
000560 75 40 9b fb a0 cf 83 3f 5b 02 32 bc 3c af a1 3f
       0.009673364332599224 0.03454007909113407
000570 5b e7 8f ec dc 1c b4 bf ba 25 3f d7 0d fe c2 bf
       -0.07856541419451217 -0.14837811479655533
000580 78 fc fe 60 17 e0 c5 bf f9 cb 4d 87 6f 7e b5 bf
       -0.17090122448096046 -0.08396050504033771
000590 2d 16 2c 34 ad 50 9d 3f bb a5 ca 42 0e 91 9a 3f
       0.02862806921895904 0.02594396860755464
0005a0 13 91 ee c0 9f 4f ba bf 15 18 ec 4a cf 89 b9 3f
       -0.10277746639491551 0.09975905970722494
0005b0 14 c4 ec 79 b5 29 b3 3f fb bb 05 dd 19 16 9e bf
       0.07485517718011209 -0.029381183734070487
0005c0 b1 ed 93 f0 34 2c c4 bf 85 c6 e3 d3 a6 32 af 3f
       -0.15759908434834594 0.06093331657929205
0005d0 70 3f 39 de c5 2b af bf 96 04 57 45 73 3d a4 3f
       -0.06088083589258886 0.03953132840570921
0005e0 9d d4 9c f7 38 f7 bc 3f 82 cf 7d 9e 97 6b 97 3f
       0.11314731641035043 0.022871369408178584
0005f0 ef 3c e4 88 08 99 aa bf 01 91 be e8 05 56 b6 3f
       -0.051948801718134756 0.08725010807262736
000600 e4 45 ad f6 35 c3 c1 bf c9 3e aa 0e 09 a5 c9 bf
       -0.13876986069457964 -0.2003489801031633
000610 41 a5 83 1d 92 59 a1 3f 04 10 83 e2 4c b9 bc 3f
       0.03388649568825964 0.1122024586684916
000620 e8 2a 90 e2 62 86 c7 bf ca 1a 6d 93 12 ca b2 bf
       -0.18378864348081625 -0.07339588259956567
000630 7d 68 58 65 03 ed c9 3f bd e0 4e e2 e8 8c b5 3f
       0.20254557083609717 0.08418136143780237
000640 75 07 7e 08 d7 93 d1 3f 08 e2 e4 6f 62 66 b8 3f
       0.27464843587232873 0.09531226379193225
000650 7a df 93 27 ae d4 b3 bf eb b7 0c fb 00 df 91 3f
       -0.07746399370432569 0.0174522546032491
000660 31 b2 56 fe da dc c0 bf 0a 0c ec af 1e d7 b8 3f
       -0.13173997324828826 0.09703246874782692
000670 00 99 44 24 48 06 ba bf a3 d7 7c e4 a5 f9 bf bf
       -0.1016583527130912 -0.12490307644188063
000680 0b dc d7 50 5e e2 c7 3f 33 88 93 a7 56 30 9a 3f
       0.18659571597501698 0.025575021722836943
000690 da eb 07 52 04 0e 91 3f db cf 4f da 36 23 9b bf
       0.016655032641192814 -0.026501519274418555
0006a0 07 97 5f 47 ea 01 b0 3f dc c0 28 65 88 3f cb bf
       0.0625292228938542 -0.21287636699117385
0006b0 a6 fd 50 4b 44 c5 bb 3f 21 9e 17 6a db 6e b5 bf
       0.10847880209711622 -0.0837227949156092
0006c0 87 56 76 77 64 c4 c8 bf 0c 86 7b b3 99 3a 91 3f
       -0.19349342187040383 0.016825105266326232
0006d0 bb 6e 3f bd b2 a2 c8 bf 41 f9 7a b4 51 3d bb bf
       -0.19246515503515646 -0.10640440613039905
0006e0 84 a3 94 d4 ba ab 7f bf 8e 16 38 31 ff de c6 3f
       -0.007732133680556145 0.1786803236320122
0006f0 ad 81 18 8d ce d3 c7 3f de eb 64 34 90 af c1 bf
       0.18615133180084112 -0.13817026670753213
000700 38 db 85 41 09 ee c5 3f 42 64 13 86 5f 6a a8 3f
       0.17132678698882287 0.04768656264941075
000710 6a 7b ee 89 9a d8 91 3f 9d 06 85 fb 19 60 b0 3f
       0.017427839916872946 0.06396639242759723
000720 f5 1c 5d 88 c8 4e b9 3f b5 d7 c9 68 00 21 b5 bf
       0.0988583882254835 -0.08253481443702422
000730 c2 d6 72 fd 44 16 ce 3f c2 6d d0 1a 48 44 a5 3f
       0.23505461097163588 0.0415365727169177
000740 f5 40 96 1a d7 51 a2 bf 44 fc 49 04 57 81 b2 bf
       -0.03578064155147046 -0.07228607039176987
000750 28 c8 7d 55 22 c4 ac 3f 63 2e 45 04 a1 6d 99 bf
       0.056183884559587505 -0.02483226383746596
000760 79 85 e3 7f 5c 4e 93 3f 9f 20 02 45 e2 5f b0 3f
       0.018853612237653892 0.06396307167790603
000770 9a 72 d9 3d f7 24 b2 3f 2c 2f e9 77 c3 b2 b0 3f
       0.07087655315394628 0.06522771527778265
000780 11 82 69 b9 c5 6e c4 bf 95 f9 99 94 80 23 c8 3f
       -0.15963050416304772 0.1885834432213868
000790 fc 7d 05 63 2a 17 8c bf f4 95 1c 1a b0 5d 8a bf
       -0.013716059824843356 -0.012874007984986037
0007a0 4b 35 2c 02 98 07 74 bf 68 df fd 9a aa ac b9 bf
       -0.004890054495956984 -0.1002909305951768
0007b0 42 31 f0 35 05 ae c2 3f d8 33 3f 13 6c 62 71 3f
       0.14593567975715344 0.004244253319439083
0007c0 6a 60 06 ef 66 c4 b4 3f e8 53 82 5b c6 4b c0 bf
       0.08112185798234042 -0.127312464410948
0007d0 62 4f 66 2e 4c 90 b5 3f ab 37 42 df 6c 3f c1 3f
       0.08423305638126302 0.1347480859880624
0007e0 1a a8 5e 82 4d 5e ae 3f 12 2c 9e 60 cb 1c b8 bf
       0.05931322304179805 -0.09418936833223793
0007f0 13 e8 cf 76 85 2e c0 3f ad ac 95 1a 9e fa b9 3f
       0.12641971875547195 0.10148037098922442

rnn.weight_hh_l0 f8 [25, 25]
000000 bb 20 d4 f5 88 25 b8 bf c1 31 99 e0 34 60 9e 3f
       -0.09432273866343881 0.029663873871230487
000010 64 81 d2 5a 37 6f c2 bf 05 61 17 9d e0 f6 d1 bf
       -0.1440190499752233 -0.2806932005019152
000020 9b c0 7f 32 c6 a0 9f bf d1 cb 76 74 a1 61 c6 bf
       -0.030886742431846952 -0.17485445200654096
000030 db 6f 0a d0 8c ca c2 3f 22 ec 47 d0 75 43 c9 3f
       0.14680633695831954 0.19737122220962627
000040 8f 73 b2 e8 f2 58 b8 bf 55 84 c1 c8 2d 52 bd 3f
       -0.09510725194054558 0.11453519965427124
000050 4e f2 a0 98 05 e0 c3 3f bd ed ca 80 06 56 a8 3f
       0.1552741046197234 0.04753132173706429
000060 47 de e4 0e 83 2d af bf ac 4f d4 2e 47 1d 80 bf
       -0.060894103592030784 -0.007868343464487136
000070 fc 51 d9 a9 89 54 c9 3f 04 a7 bb 77 7e 03 c8 bf
       0.19789238732722925 -0.18760662885988932
000080 05 d0 21 86 b2 0a 94 bf cb 08 f8 8e 99 52 c6 bf
       -0.019572057186863407 -0.17439574700262592
000090 3b a4 c8 2d a0 a1 cc bf ab 3e 7d 2c 49 a7 d0 bf
       -0.22368242488417586 -0.2602103170838556
0000a0 66 7a 13 6e 97 db 99 bf ef 44 8c 70 11 2b c2 3f
       -0.025251737683783658 0.14193933482650986
0000b0 b4 50 87 fe e4 4f 90 bf 7c cd 61 30 49 4a d6 3f
       -0.01592977336424957 0.34828405117806205
0000c0 9b 0a 81 a0 57 a7 cc 3f 42 1e 7d ef 2a 5e 95 bf
       0.22385688149559688 -0.020867033831818434
0000d0 36 d7 06 46 de 18 92 bf f2 15 21 bb 34 d7 a3 bf
       -0.017672989868251686 -0.03875126632969374
0000e0 b3 74 fc 7a 83 28 b8 3f ec c0 b7 08 c6 32 7f bf
       0.09436818840591137 -0.007616780825159913
0000f0 09 32 83 ac ea 2d bf 3f ae 9a 6b 15 14 00 ce bf
       0.12179438316088222 -0.23437739416040898
000100 50 a8 ca f7 8b 34 b2 bf ba 14 fd bc 83 1d 9d bf
       -0.07111429977035866 -0.02843290177340372
000110 b2 5c 7f be 87 44 c9 bf 70 b1 85 ba e6 31 cc bf
       -0.19740387727390424 -0.22027286632090748
000120 c8 55 22 d6 66 55 b5 bf 9c a6 c7 b0 72 25 ad bf
       -0.08333437660106491 -0.05692633064229577
000130 b9 af 50 88 6f 2d 97 3f bb b0 46 36 45 4d b8 3f
       0.022634260840433493 0.09492905211544926
000140 60 f3 96 4f 9c 60 c9 bf 83 f1 13 74 e9 06 90 bf
       -0.1982608212109893 -0.015651366910775188
000150 3d e3 23 44 47 92 cd 3f ba ae a7 57 e5 78 b6 bf
       0.2310265619960549 -0.08778222455992593
000160 3f 28 4f f5 f4 21 a8 3f 7c e5 40 5e d9 a9 be 3f
       0.04713407034394423 0.11977919150458222
000170 7e 9f 87 83 f2 39 ba bf a9 d2 08 80 86 f3 b0 bf
       -0.10244670592476088 -0.06621590257493416
000180 05 4c ad fe d2 1c a9 3f 56 83 58 be 84 0a a3 bf
       0.04904803618287449 -0.03718962501102989
000190 46 77 63 b1 59 0e c9 bf 99 3c df 5e c2 9a b6 bf
       -0.1957504383234953 -0.08829893890582453
0001a0 90 ad 50 0f 41 42 be 3f 05 a4 79 5c 24 e3 c6 bf
       0.11819845794587125 -0.1788068248309004
0001b0 fc 37 db 52 d0 1e b1 bf a4 73 6e 16 97 10 c3 3f
       -0.0668764307294793 0.148943792298181
0001c0 b6 cf b1 8a ba a2 ca bf d1 9d 68 be 5e 51 c1 3f
       -0.2080910851688011 0.1352957181672836
0001d0 ab b0 ff 7b c0 41 9c bf 3b 67 07 65 3c c4 c7 bf
       -0.027594573562894336 -0.1856761449151295
0001e0 2d 22 c2 b7 1e 62 c7 bf 24 98 eb bc 5d 11 b6 bf
       -0.18268188450407888 -0.08620248663245939
0001f0 32 90 00 91 63 3c c5 3f fa 72 40 0d bc 2f b0 bf
       0.16590542392907676 -0.06322837184456978
000200 1d ce 96 a1 63 20 a7 3f 13 25 8c 76 08 6f a8 bf
       0.04516898486636143 -0.04772211501228631
000210 0c 92 7b 3e 4a 9b ce bf 5a f0 6b a4 fa 5c b3 bf
       -0.239114075192575 -0.07563749803733924
000220 9f 22 11 c2 13 7a d6 bf da d3 9d 90 99 fd b4 bf
       -0.35120099975442004 -0.08199462681461914
000230 ac 31 b4 db 42 37 8d 3f 9c af 9c d3 19 8f a6 bf
       0.014265558557348644 -0.04406052311091388
000240 50 d2 59 3e 00 c7 cb 3f 59 ff 30 81 19 8b 98 bf
       0.21701052708125923 -0.02396812296888071
000250 0c b3 c4 c5 16 ae a9 bf 56 b7 f0 65 4f 18 b5 bf
       -0.05015631832279696 -0.08240219343926233
000260 a9 cb 1d cb 0b 27 bb 3f a6 71 7a e1 6b 6a ba 3f
       0.10606454571624958 0.1031863618358729
000270 e0 45 c7 d6 63 ae ac bf 13 ec c0 f3 12 f7 b3 bf
       -0.0560179900818516 -0.07798880053535155
000280 b7 cd bf 8c e6 a6 cb 3f 40 7c 78 5f c4 c6 b5 bf
       0.21603090164681557 -0.08506419497324291
000290 00 47 ab 77 c8 9d b0 bf c4 57 0c 5a f3 cc c5 3f
       -0.06490757867439001 0.17031709572682818
0002a0 23 6e d3 76 a4 7e 91 3f 82 a0 81 b4 34 18 bd bf
       0.017084665062482195 -0.11365060240643923
0002b0 1e 08 6a c3 d4 96 b9 bf b6 55 b4 aa a6 eb bb 3f
       -0.09995775004247817 0.10906449954594319
0002c0 00 d4 b8 68 71 84 a9 bf 00 d7 5c 99 bf f1 91 bf
       -0.04983858493179838 -0.017523759589685106
0002d0 ac f2 08 9d 01 ee cc bf 6e d8 53 ed 1f 37 98 3f
       -0.22601337592813786 0.023647784099886264
0002e0 2c 8d ee 8d 38 be c1 bf 76 ac 91 61 3d ba d0 3f
       -0.13861758165612892 0.2613671734640727
0002f0 0e bf 9c e9 6a a1 d0 3f b9 31 a6 93 0f a6 b6 bf
       0.2598521500940344 -0.08847138743130402
000300 31 5e 90 80 f8 70 cc bf ad da 57 b0 d8 62 e0 3f
       -0.2221975925210571 0.5120662159159416
000310 07 6b 38 6c a4 00 c8 bf 15 f3 15 4b 95 4d ce bf
       -0.18751960071752924 -0.2367426506642906
000320 db 4f 10 43 3a 53 c1 bf 0f f7 5f 00 b7 58 be 3f
       -0.13535240435214643 0.11854118117477362
000330 95 81 27 f1 31 9a 82 bf d5 b3 78 ba d2 57 dd 3f
       -0.009083166286416847 0.45848530016047323
000340 9c 60 f7 40 11 61 d0 bf 66 b8 69 d8 6d 03 a7 3f
       -0.25592452377669317 0.04494803683051955
000350 7d 2b c8 99 ec c4 cc 3f 73 d3 5a ff 90 f1 c6 3f
       0.22475965031511783 0.17924702137466006
000360 48 04 b7 3b b4 7d 9a 3f 5d 07 60 93 f5 f0 ca 3f
       0.025870147843083197 0.21047849365282448
000370 53 fe 23 fd d5 04 cd 3f bd ec 6c d7 84 16 be 3f
       0.22671007976895172 0.11753111133014023
000380 37 e2 93 1d 0e a6 c1 3f 91 b5 2b 23 cc 7d cb bf
       0.13788010067197984 -0.21477653233834507
000390 e5 76 dd ed 00 93 b8 bf 4b 11 de 13 70 35 c2 bf
       -0.09599309737447077 -0.14225579233255767
0003a0 e1 19 ac ad a1 cd d8 3f e6 7c e8 4f 85 c3 ab bf
       0.3875507541673909 -0.05422607994500499
0003b0 a9 6b 8e f4 2e 05 e0 3f 81 ef 2c 69 e9 21 c4 bf
       0.5006327415934396 -0.1572849048187628
0003c0 28 a4 8d 08 ad 55 b7 3f 0b c6 b7 b0 5a 79 cc 3f
       0.09115106066532574 0.22245343807985338
0003d0 36 b3 08 0a df 38 be bf c5 39 bf 4a 64 30 d2 3f
       -0.11805528635950399 0.2842035989714556
0003e0 e2 db ac 64 9e 6d c9 3f 70 fb a0 e3 a1 64 c5 3f
       0.1986577979639313 0.16713355650605477
0003f0 01 ca 8d a8 07 ca c4 bf ab a0 bf 3c 29 02 b6 3f
       -0.16241546373528595 0.0859704755126837
000400 4d 00 41 a3 1a 0d c5 3f a0 3f 00 58 e6 c6 b6 3f
       0.1644624039781796 0.08897246979199602
000410 51 71 21 c6 91 28 d6 3f 19 03 b7 a2 cd ee d1 3f
       0.3462261614675031 0.28020039453626705
000420 24 cf c6 a8 fc bc c3 bf ff 5d cf f3 bb 20 b4 3f
       -0.1542049240211948 0.07862448408501875
000430 6e 05 3c 20 8a 40 bb 3f 04 c9 db 1f 89 27 cf 3f
       0.10645354544614857 0.24339403205483034
000440 20 8d d7 66 74 6d 94 bf 5b 47 0c f4 13 c4 84 bf
       -0.01994878652284371 -0.010139613995793153
000450 05 b8 5e a3 ce 4e cb 3f a7 55 dc ae c8 b8 90 bf
       0.21334250428247983 -0.01632989470734505
000460 56 7e a1 db 02 99 82 3f 25 2f fe 1d 74 30 c1 3f
       0.009080908134080062 0.1342911859941235
000470 97 76 d8 19 ac 1d be bf a1 0b 38 a0 49 68 d6 bf
       -0.11764026289935213 -0.3501152100217784
000480 38 2d de 65 ff 48 c2 3f 7c fb 2a 82 95 ce a0 3f
       0.1428527114297624 0.03282611097301122
000490 d0 ba c2 ab 68 1e cc bf eb 57 64 92 e0 06 ba bf
       -0.21967800509215474 -0.10166743825934048
0004a0 bd d3 c8 dc f4 12 d7 bf bc 5d 64 1c 9b 86 c3 3f
       -0.36053201256737194 0.15254534612971138
0004b0 47 8a be bb 92 5e d0 bf 9e af 5d 39 99 ce a0 3f
       -0.2557722886505513 0.032826221707039624
0004c0 94 4e 8b 20 69 7a a5 3f d4 d2 f8 df b0 7d ab 3f
       0.04194954416530297 0.0536933205989151
0004d0 3b a9 18 0f 9d 21 ba 3f 84 c3 e6 13 c1 d1 d2 bf
       0.10207540148318099 -0.2940523809766591
0004e0 43 8e 18 9b f9 6a be 3f d4 36 c3 75 2b 6c bb 3f
       0.11881980930825713 0.1071192896372069
0004f0 c9 5c c9 a9 07 ee cc 3f 3f 7c 82 55 c7 08 d7 3f
       0.22601409712181056 0.35991080618436294
000500 e1 5a 07 4a 45 b3 c9 3f ba c6 b2 aa dd cb ad bf
       0.20078340639766792 -0.05819599827499418
000510 3b 8e 4d c3 99 94 c0 3f 75 2e 33 2e d9 d7 9a 3f
       0.1295349315288251 0.02621402115327816
000520 b2 d0 19 e8 7f 53 c1 3f a0 4c 7a 2d ce be d0 bf
       0.1353607066445242 -0.2616458362692331
000530 ca 90 6d 3a 16 5e ca 3f c5 88 03 0e 62 84 bc bf
       0.20599630215577341 -0.11139500467428139
000540 51 08 2e 30 a5 17 cd 3f 46 eb cb 39 1e 65 b8 bf
       0.22728409626512527 -0.09529293929146573
000550 44 9e e4 de 59 59 bf 3f 53 0a 24 0c 7b f1 a5 3f
       0.12245713893627747 0.04285797618105804
000560 d4 76 1b 2d 54 f9 c7 3f 20 c4 d2 52 6e 7e cc 3f
       0.18729641153816223 0.22260836643320747
000570 b1 e9 d0 5a be bc 9a bf f0 b2 94 10 c1 db ae 3f
       -0.026110624592755097 0.06027034118083019
000580 33 e0 92 da 73 8b b3 bf b7 3e 40 27 a6 03 cb bf
       -0.07634662710449973 -0.21104885975409157
000590 ae ae bf 74 41 9f d1 bf 9e 06 07 eb 26 ec 82 3f
       -0.27534519578214656 0.009239486739605337
0005a0 42 aa e5 3f ea 8d c7 bf 6e 4a 9b 5d c4 c9 cc 3f
       -0.1840184032437993 0.22490744181284889
0005b0 9c 5d 4f 53 5b d7 b4 3f d6 87 ab 08 f0 45 b2 3f
       0.08141108306823813 0.07137966357870992
0005c0 d0 ed a7 d8 67 28 5e 3f dd fe c8 17 b8 b8 82 3f
       0.0018406881450790842 0.009141386247505984
0005d0 56 2c 15 b9 5a 77 98 3f 76 63 f9 91 19 a3 c7 3f
       0.023892800852348316 0.1846649134411355
0005e0 15 b9 77 c0 7d ce af 3f 3d b0 12 8f 40 d3 c7 3f
       0.06212227796992146 0.1861344050024644
0005f0 52 07 b6 af 1f 35 be bf 52 bb 36 4c 69 a6 c7 3f
       -0.11799810447521722 0.18476597043396709
000600 fc 19 17 67 c0 c2 ca 3f 80 3e b5 76 06 bf cc 3f
       0.20906834634497773 0.22457962795532538
000610 c1 08 10 0f 15 40 a7 3f 92 c9 03 49 13 1e be 3f
       0.04541078385229148 0.11764641316020732
000620 69 88 c7 9f 13 59 be bf 75 b1 2e 9a 91 31 d6 3f
       -0.11854670191635965 0.34677543694376506
000630 84 34 dd 3c 0d 69 d3 3f bc 30 78 1f 53 12 84 3f
       0.3032868475318724 0.009800576589462977
000640 42 66 5a dd fa c6 c2 3f f1 8e 33 a9 34 42 bd bf
       0.14669738586671782 -0.11429146891492416
000650 b4 a9 bb ce 05 30 bb bf b3 8a ef 5c a2 3c dd bf
       -0.10620151803201489 -0.4568258197379393
000660 4b 16 00 64 09 24 cc 3f 52 4f f7 e8 6f 85 a3 bf
       0.2198497522623931 -0.038127419651259445
000670 1b 7a a0 3f 66 83 83 bf cd 87 26 c8 e6 a7 c1 3f
       -0.009527968231904762 0.13793644688581566
000680 79 b9 21 b1 da 08 bf 3f 26 94 7c f0 4a ce 81 bf
       0.12122885536675722 -0.008694253410405816
000690 1c 9b 99 5a 70 19 66 3f d6 7d 1b 14 f6 37 9e 3f
       0.0026976770794137194 0.029510350205667134
0006a0 b8 e1 c0 d0 dd c6 79 bf 67 99 45 d3 55 dd c0 3f
       -0.006293169466566821 0.1317546159363687
0006b0 90 09 de f7 39 62 c7 bf aa fb 81 e7 e1 90 c5 bf
       -0.18268513300797595 -0.1684839611443441
0006c0 65 b4 ba 6d 22 c3 b7 3f 88 a5 a4 ad 65 27 a0 bf
       0.09282126597345693 -0.03155057663600319
0006d0 3d 20 7e f0 fa 89 d1 bf ef eb 1b ac 34 21 b5 3f
       -0.27404664502728676 0.08253792955285609
0006e0 13 3b f3 8c 32 29 b2 3f 57 a4 e4 1f a2 ca b7 3f
       0.07094112340130847 0.09293568876877721
0006f0 69 62 89 06 5d f7 c7 3f 2b 44 8b 2e d4 a8 bf 3f
       0.18723643130467174 0.12366987358406394
000700 1e 0c 12 57 00 58 72 bf c3 0d c8 08 fd 09 95 3f
       -0.004478455856886247 0.020545915280320914
000710 27 6b 24 e0 68 27 c1 bf f9 30 1a 57 dd fc b1 3f
       -0.13401518768736162 0.07026465775033221
000720 d3 cb da c1 c7 81 ba 3f 31 09 05 f8 b5 9a bc bf
       0.103542790248681 -0.1117356997029091
000730 9a c5 07 f1 27 2c cf 3f 5c 28 3e 65 77 cf c2 bf
       0.2435350348382997 -0.14695637172218567
000740 42 41 ae d9 04 8d c6 bf 51 6a ab 5b 3e 56 b8 3f
       -0.1761785567182504 0.09506597269084095
000750 63 a2 c7 85 e6 df bf 3f 20 bc 94 e3 c7 78 bd 3f
       0.1245102001772778 0.11512421899963998
000760 b5 5f 72 d6 b8 55 b9 3f 4b 9d ed cb 87 89 b8 bf
       0.09896426425473133 -0.0958485482093369
000770 9b 3a 1d 05 08 fc c5 bf 46 eb 98 da 88 49 c7 3f
       -0.17175388574328995 0.18193159745882265
000780 1e 5d 91 06 6b bc 93 3f 8f dc 67 67 a5 b0 cf bf
       0.019273445392483095 -0.24757831143481154
000790 25 41 85 90 34 58 ca bf ae 67 4a 4f 8b 0e a7 3f
       -0.20581681305567048 0.04503283827689529
0007a0 b8 cd 4d a2 24 0a ac 3f 15 d9 56 2c a9 29 b5 3f
       0.05476488572358157 0.08266694386006564
0007b0 0e 1b ef 44 e5 9f a9 3f 8f 5f ac 8e 8c 8a c5 bf
       0.05004803148727009 -0.16829068151923507
0007c0 ea d4 e9 b6 31 d4 a4 bf d4 ca 0a 08 f3 7f 7d 3f
       -0.040681413248344914 0.007202100125754913
0007d0 27 47 a8 ca e0 50 d1 3f c8 97 48 53 57 86 b6 bf
       0.2705614070010704 -0.08798738272943674
0007e0 35 ea 42 c6 44 75 ab bf f2 ea 65 49 ad 1a bb 3f
       -0.053629063798741695 0.10587580720850179
0007f0 1d 40 45 4d 3e e4 ba 3f ed e9 20 6f 5f 99 bf 3f
       0.10504521738516855 0.12343403304195251

rnn.bias_ih_l0 f8 [25]
000000 4b a5 a0 86 8b ee a8 bf 04 42 2b eb 89 19 ac bf
       -0.04869495409395571 -0.0548823451587204
000010 6f 47 bc b6 f9 25 bb bf 9d 08 10 2b 65 50 ba 3f
       -0.1060482092982775 0.10278923322042251
000020 3a 6a 74 63 9f c1 cc 3f 3b be e7 83 a6 90 c2 bf
       0.22465889316738857 -0.1450393814152323
000030 41 5b fc 95 8e aa 84 bf 4d 4a c1 19 32 35 c6 bf
       -0.010090936615183234 -0.17349840409822762
000040 dd e4 a9 bf 52 83 b0 3f 1d a3 55 16 aa a2 c2 bf
       0.06450383357322971 -0.14558912363579504
000050 8d b0 44 d5 70 6e c7 bf ae a4 82 f4 18 31 b7 bf
       -0.18305788434497963 -0.09059291810503353
000060 a5 b1 36 29 47 8b c5 3f f9 cb ff a3 2c 3b b9 3f
       0.16831292641053355 0.09855917934309834
000070 59 fe ef 43 9b bf c3 3f de 74 dc b5 01 61 c0 bf
       0.15428486649760734 -0.1279604089731156
000080 4d 1f 4b 3b d3 c9 c2 3f 64 6f ee 9f 89 54 a0 3f
       0.14678421397388278 0.031894970677256024
000090 4f f0 44 39 30 10 a2 bf fd 17 90 cf 1a 18 c1 bf
       -0.03527975749099765 -0.13354811797051971
0000a0 25 48 40 6c f9 ea bc bf 96 23 83 11 e2 6e b8 3f
       -0.11296042340134756 0.09544194152398541
0000b0 ae 01 8c b0 9f d9 be 3f 17 29 98 47 50 c4 96 3f
       0.1205081754706103 0.022233251924299226
0000c0 0f 91 c9 a1 85 18 c0 bf
       -0.12574835204862508

rnn.bias_hh_l0 f8 [25]
000000 53 29 a8 a9 86 3a c3 bf fd a0 95 b5 35 e2 bb bf
       -0.1502235725786912 -0.10892043765273125
000010 58 dc a1 24 c6 d9 c1 3f ce ee df 29 4c e0 ab bf
       0.13945843495068533 -0.05444562922636252
000020 39 6a 74 c3 68 12 ce 3f 3b be e7 f3 57 83 c2 bf
       0.23493680518807183 -0.14463328751979695
000030 c7 c5 5f 21 71 f7 c3 bf 90 a5 14 fc 8d cd 8e bf
       -0.155988827987626 -0.015040501838103265
000040 8c 0d 2b 40 e6 c7 c3 bf e3 5c aa 29 68 17 c6 3f
       -0.15453794606410687 0.17258932146498926
000050 a6 3d ed 2a 93 7b a1 3f ae a4 82 b4 91 ba b9 bf
       0.03414592646606289 -0.10050306946745266
000060 50 8d b5 89 6c ec 9b 3f 31 68 00 d8 42 8c a2 bf
       0.027269073395826127 -0.036226357333547184
000070 48 03 20 98 31 cd b1 bf df 74 dc 15 ec d5 c3 bf
       -0.06953725780477982 -0.1549658877128541
000080 5b 3e 96 f6 65 1e b1 3f 49 c8 08 a0 a1 62 bd bf
       0.06687009115398139 -0.11478624493682434
000090 85 f0 44 99 9a 55 af bf fe 17 90 9f 66 72 c3 bf
       -0.06119998093569826 -0.1519287375560338
0000a0 df b7 bf d3 0b 02 b7 3f 6c dc 7c ae 65 34 bc bf
       0.08987497253085007 -0.11017451772646475
0000b0 ea 00 46 d8 cf 3d c6 3f cd fa 0c 27 d1 51 ca bf
       0.17376134929873582 -0.20562185675404124
0000c0 3c ef 66 63 f8 b2 84 3f
       0.010106983693610176

fc.0.weight f8 [14, 25]
000000 1f 9b 24 51 ba b5 b9 3f eb 32 af b3 4e ec 94 3f
       0.10042919617681577 0.02043269130426754
000010 8a 65 6b a6 5b ac c1 3f 36 13 5b 52 71 52 9c 3f
       0.13807244897797616 0.027658243800732417
000020 a9 04 b9 31 eb c0 c0 3f ae c8 07 e2 18 b7 be bf
       0.13088741233699366 -0.119981341536717
000030 14 42 19 a6 ba 01 86 bf 4c 11 50 ba 30 b5 b5 3f
       -0.010745485490731212 0.08479599522258247
000040 2c c0 f1 fc 95 f6 c4 3f 85 9f d9 24 ad 04 7c bf
       0.16377520418927938 -0.0068403972087266495
000050 c8 71 e7 8b 9c 96 b1 bf b2 ac 69 25 ca a1 d0 3f
       -0.06870439925791694 0.2598748555526057
000060 15 a5 57 9a 48 3c b1 bf 10 4b e1 a0 4d c6 71 3f
       -0.06732610481380548 0.004339507328114292
000070 2e be a4 2c cd a0 b9 3f eb a0 8a 5a 50 71 b4 3f
       0.10010988559656006 0.07985403261648442
000080 08 b8 10 c8 ae 10 c5 bf de b7 96 a5 02 12 9b bf
       -0.16457161682905075 -0.026435891491637047
000090 72 22 99 e9 56 a8 b8 3f 99 77 de 88 c9 e2 bb bf
       0.09631865695076572 -0.10892924872902511
0000a0 e8 84 c6 52 be 0d af 3f 66 7a 12 1a 95 e0 a6 bf
       0.060651729206492366 -0.04468217795623701
0000b0 8e 54 16 41 86 bd 9c bf 52 53 90 96 26 34 a0 3f
       -0.02806672832737838 0.03164787853180563
0000c0 c1 ee ea c2 4f 6d cf 3f fa 8f 1c 58 8f 72 c8 3f
       0.24552342431512922 0.19099609186480376
0000d0 7d f6 7f 20 58 8d c0 3f 58 7b 4b 23 5c 11 c9 3f
       0.12931348406702972 0.19584228251820934
0000e0 70 16 59 c4 a6 2d d0 bf 20 79 f2 8f b6 cb c8 3f
       -0.25278634237870445 0.1937168314806934
0000f0 fe 4a 14 84 2a 79 ae bf d6 30 fc e1 02 91 be bf
       -0.059518173811872174 -0.11940019623961304
000100 6b 75 f3 37 51 b2 63 bf 60 56 c6 04 41 78 bc 3f
       -0.002404364233014424 0.11120993010111979
000110 68 62 6e 1e 59 b7 b2 3f 53 7e a0 ae c3 38 99 bf
       0.07311017029713585 -0.024630601437932786
000120 c4 fd ef 89 b6 aa c6 3f 42 33 d9 44 30 1a b5 bf
       0.17708474860408618 -0.08243085556860044
000130 34 f7 88 f5 02 e0 b3 3f 1f e3 c8 db d1 2a a6 3f
       0.07763689512736677 0.04329543884199993
000140 27 f5 61 35 0a 41 c7 bf fb ad b5 8d 28 2e ba 3f
       -0.18167235952925262 0.10226682147702341
000150 86 5d 59 d7 1f 00 b6 bf 34 cd 4f 39 c7 86 bf 3f
       -0.08593939788385371 0.1231503024026111
000160 d4 9b 75 f6 70 2a ca bf 68 48 94 99 ac f6 9c 3f
       -0.20442020448828535 0.028284737466556825
000170 37 0f 47 42 bc db a6 bf 20 41 5c 81 4a 53 a1 bf
       -0.044645197954677966 -0.0338385851774794
000180 55 cc f0 31 39 1c ac 3f 63 a9 70 5f f3 3e 89 3f
       0.0549028275931042 0.01232710013399147
000190 15 e6 72 ad 11 69 aa bf c5 5a 8b b6 dd 7d ca bf
       -0.05158286325736242 -0.2069661275224545
0001a0 fa 41 ae 68 76 65 bd bf 7d f5 5a 76 ef 66 c3 bf
       -0.11482944541626941 -0.15157883910243788
0001b0 cc 37 38 da e7 fa ac bf 05 4d a0 de d7 c7 c4 bf
       -0.05660175837338918 -0.16234873171251976
0001c0 52 cb a8 32 44 76 b6 bf 82 d0 e0 9c 02 68 94 3f
       -0.08774210202026936 0.019928017449459386
0001d0 83 c6 b2 a2 a0 93 82 bf e3 16 94 3c 16 16 a9 3f
       -0.009070639577063893 0.0489966343830426
0001e0 49 f7 23 9b 31 ea 75 3f 0f f9 5e 36 4f 6d 60 bf
       0.0053502977118549755 -0.0020052477948119328
0001f0 92 50 5c 88 3c ba c0 bf a8 f7 3f e1 24 04 c5 3f
       -0.13068348558647763 0.1641889667370695
000200 bc e2 e4 7d 06 68 c5 3f 7f 10 b2 17 d2 7e c0 3f
       0.16723710200473885 0.1288702598286626
000210 e5 c6 70 dc 66 87 c3 bf db 53 e0 16 d7 83 b6 3f
       -0.15256963504503243 0.0879492216921131
000220 92 22 38 e4 ed 77 9b bf e0 34 a2 53 78 48 c6 bf
       -0.026824681333922636 -0.17408660968468492
000230 f3 ce d9 92 79 66 b9 bf 92 55 d9 ad 55 bb c1 3f
       -0.09921989283776238 0.13852950085371823
000240 21 9b 27 1a 40 8a a9 bf 5c de 07 7f c0 ba c7 3f
       -0.04988289183875439 0.18538671686814012
000250 20 09 3b 28 40 3f d0 3f f6 8c 94 fd b9 48 bb 3f
       0.2538605111004859 0.1065784687130423
000260 fe 15 d6 8c c7 21 8d 3f 6f 09 53 f8 1e dd 9c 3f
       0.014224585519296614 0.02818725958491924
000270 60 cb 87 9b 95 b3 ad bf c5 f4 69 fe 6a 9c c9 3f
       -0.05801074527325656 0.20008599684289244
000280 5c 03 db 3b b2 5d c8 bf 97 a5 2e 23 69 1e be bf
       -0.19035938189156354 -0.117651530351074
000290 83 ce c9 91 a4 dc c1 bf 40 87 c5 59 96 19 bd bf
       -0.1395459853989572 -0.11367168132485705
0002a0 3f a5 78 6b bf ae bf 3f 6d 7d a1 2e b7 c0 c5 bf
       0.1237601888066324 -0.1699437120141555
0002b0 a6 c1 c5 dc b7 4c c9 3f 34 d2 d4 7f c0 72 ac bf
       0.19765375404268787 -0.055562987903986644
0002c0 31 14 64 93 3b 40 c0 bf fb d0 40 58 d1 dc cb 3f
       -0.12696022698233514 0.2176763230251096
0002d0 ba 53 82 bb 54 39 b1 bf 0b c5 d2 0a ee b6 c9 3f
       -0.06728105142458576 0.2008950760696638
0002e0 2e 07 1a 8b ab 1d b9 3f 4d 07 fc e2 9e 2f bc 3f
       0.09810897966420093 0.11010163346875608
0002f0 1e a4 02 76 d6 92 80 3f b0 b8 af d0 90 b8 bc bf
       0.008092570759190617 -0.11219124884493925
000300 55 61 5c a0 68 00 97 bf 79 78 d4 60 3c c2 86 bf
       -0.022462496554994733 -0.011112662987724274
000310 63 b8 5a ff ba 72 c9 3f d2 e7 f9 37 66 e2 ca 3f
       0.1988137957427539 0.21003415806973053
000320 38 c8 93 ef fa 33 ab bf 4a bd b3 84 fd 8c c1 bf
       -0.05313095259215611 -0.13711518268199036
000330 23 15 d8 96 c4 32 d0 3f e6 08 ec 5d 29 09 ba 3f
       0.2530986283384939 0.10170229475992051
000340 0c b5 c4 d5 f5 60 c0 bf 27 fd aa 1e a9 b0 be bf
       -0.12795899331960248 -0.11988312720039983
000350 49 91 1f 47 4e ce c3 bf 64 0d af 7b 23 2e ca bf
       -0.15473345253770734 -0.2045330385136409
000360 4a ad 2f fd 46 e9 99 3f d5 5b 08 9d 62 04 b3 3f
       0.02530394478155288 0.07428566297345125
000370 a4 c2 16 98 39 c2 9a 3f e4 a4 0e fd cd 84 ba 3f
       0.026131534488458855 0.10358893802790053
000380 fd 58 aa ef bf b8 c6 bf 91 c4 f2 42 b2 97 c7 3f
       -0.17751311495221236 0.18431690472565213
000390 e3 d2 fb 23 bb cd cc 3f 71 0b 5d a0 4c b7 90 3f
       0.22502841240898083 0.016324231422241767
0003a0 be e1 0b a3 a1 ee b5 3f 95 e2 10 90 b4 4b af 3f
       0.08567247610688519 0.061124460779358326
0003b0 0a 98 9f 43 1a 23 b3 3f 72 ec 55 9e 80 1a c6 bf
       0.0747543730827546 -0.17268378955109004
0003c0 3a 52 82 46 c9 70 a2 bf ea 45 c2 90 1a 4e b2 3f
       -0.036016740662635674 0.0715042689719422
0003d0 49 a0 cd 6f f3 a0 99 3f 4b 88 28 f1 0d 6f c4 3f
       0.02502804155247443 0.1596391131907374
0003e0 a1 0e 79 1c 10 04 d0 3f 2f d4 41 94 e1 81 ad bf
       0.25024798183970104 -0.0576315396764716
0003f0 8d 7f 50 3f 94 a3 ab 3f d2 73 06 95 95 a0 93 3f
       0.05398238442307877 0.01916726800992647
000400 37 b4 75 dd 20 22 d1 bf 29 c5 54 64 2e 7b a6 bf
       -0.26770803095752477 -0.04390854811425477
000410 96 78 8e 63 2e 31 a0 3f f3 0d 92 0f d1 6e bd bf
       0.03162522282876627 -0.1149721777929285
000420 11 a7 51 b9 fa 30 c4 bf 7f ea 34 a6 47 3f 50 3f
       -0.15774473236825107 0.0009916495990426597
000430 89 1a 0a ad dd b0 42 bf 46 2a 76 da 32 40 a8 bf
       -0.0005704004671123901 -0.04736479679839482
000440 62 5c 57 0e f3 99 c3 3f be d8 bf 26 e0 cb c5 bf
       0.15313566398865236 -0.17028428928433031
000450 0c 44 ef cf a8 6d b3 bf c1 a4 68 08 16 a7 91 bf
       -0.07589202000168899 -0.01723894525836012
000460 cc ca 29 f2 47 3e b5 3f e6 78 ed 3e f4 54 91 3f
       0.08298158323467958 0.016925636616513716
000470 1d b2 4b b9 e7 d7 c7 bf 6b 59 70 99 63 a4 a2 bf
       -0.18627640292778916 -0.03641043899567616
000480 7a 55 27 52 c8 b1 9c bf b8 bd aa 6c b0 34 ac bf
       -0.02802193643022608 -0.05508948637486405
000490 7e 7b 20 16 78 3a ae bf 4f 62 7e f8 18 fe b8 3f
       -0.059039833737407385 0.09762722079029483
0004a0 a8 d2 80 e5 27 7b b1 bf 7d 06 39 52 3b 4d c9 3f
       -0.06828545907121486 0.19766942515166255
0004b0 99 b1 05 67 95 0d ae 3f 52 05 19 ca b7 d6 d0 bf
       0.05869738466830938 -0.26310534225566073
0004c0 82 59 87 60 dd 0e cd 3f b4 8f 10 9c a9 84 a5 3f
       0.22701613629642386 0.04202775983892995
0004d0 b4 03 cb 64 30 b8 80 3f 9d 20 6c 8d ac 59 c5 bf
       0.00816381270976927 -0.16679913430585183
0004e0 43 a5 56 f3 35 b3 af bf 44 a6 50 e9 19 d2 7d bf
       -0.06191414447250534 -0.007280446258883414
0004f0 51 a9 4f d5 cd 20 bd bf 34 f4 a2 c1 47 40 c4 3f
       -0.11378179986755767 0.158211679028598
000500 65 c0 61 f0 0f 79 7b 3f de b5 bd aa 04 4b cf 3f
       0.00670725084465582 0.2444768747040333
000510 05 c0 89 dd 8f a7 99 bf 3c 28 b5 ea 16 2c 82 3f
       -0.025053260704623898 0.008873156583508394
000520 94 78 75 e3 c7 30 b7 3f d7 12 4f c0 72 59 b7 bf
       0.09058808615870567 -0.09120862193146749
000530 d3 69 bd bc ee f6 ca 3f 4f 11 70 18 0f e7 be 3f
       0.21066078391852602 0.12071318003296948
000540 cd ef 93 a6 16 ce d8 bf d3 24 43 ef 54 44 96 3f
       -0.3875786425339783 0.021745040038500484
000550 2f a7 14 86 f6 31 cf bf 26 22 da 79 07 23 c9 bf
       -0.2437122492495347 -0.19638150644119995
000560 ae 42 a6 7e ce 7c c7 bf 74 6f 2a 90 27 0b 94 3f
       -0.1834962957768957 0.01957380120676029
000570 2a ba 3f c2 1b 44 a3 bf ab 7c b0 19 9b 7d b6 bf
       -0.03762900110438168 -0.08785409333403275
000580 ce 9c c0 97 e3 51 d0 bf 55 9f 89 d2 84 91 c3 3f
       -0.2549981100041351 0.1528783824935497
000590 6c 4e 49 1c b2 15 c9 3f f3 6f f3 43 b3 1b a8 3f
       0.19597460156602453 0.04708633617858018
0005a0 17 92 e9 ff 42 07 b6 bf dc 98 9b b1 be 1f c9 3f
       -0.08604830501423809 0.196281277391967
0005b0 8e 14 87 bf 3d 3b a2 bf 43 33 56 37 b5 13 b8 3f
       -0.03560822451576327 0.09405071831697591
0005c0 ce 5e dc de 3a fa c1 bf 5d 8c 79 04 ac 88 7d 3f
       -0.14044891244770102 0.007210418647079467
0005d0 ce 82 e4 24 b4 c6 ce 3f 2f a0 a0 f4 1d c8 c7 bf
       0.2404389553203345 -0.18579458660792755
0005e0 36 d1 88 a7 01 d8 a7 3f 22 f7 11 05 0b d7 b5 bf
       0.046569873524648406 -0.08531254648002265
0005f0 0a ba e3 32 3c 1b c3 3f d4 d5 17 9a 16 4e c1 bf
       0.1492686508640449 -0.13519556545331446
000600 8f d3 48 bd b9 17 c3 bf d9 14 b6 40 0d 2d ba 3f
       -0.14916154615789565 0.10224993543495788
000610 10 ac 6c 6d be ac c4 bf 4c 9c 23 5d 5b 00 82 bf
       -0.1615217241572684 -0.008789743213539002
000620 ea a5 54 f6 11 c4 be bf f7 7a d9 ec 13 32 bf 3f
       -0.12017929328853652 0.12185787708720484
000630 c3 4d e1 0b 02 a3 b1 bf d0 61 6c 75 6e 25 c5 3f
       -0.0688935545925267 0.16520481809199206
000640 49 c1 63 c5 2f f5 cc 3f 43 e3 f8 2c 85 e6 cb bf
       0.2262325013939608 -0.21797241874608106
000650 f5 79 f9 86 2c be a0 3f 6a e7 b4 f8 d2 c8 b4 bf
       0.03270091197622441 -0.08118933269443365
000660 ea ef 0b 5d be ae 63 3f 0e 76 6f 55 f9 19 bb 3f
       0.0024026601826090304 0.10586508117508961
000670 5b b2 09 bd 77 ba bb 3f 32 2b c8 56 5d 30 a6 3f
       0.10831402173216402 0.04333774265622593
000680 bc 9c a0 0c 34 2c 91 3f c9 7f 32 2c c1 b2 98 bf
       0.016770184775080507 -0.024119394610010923
000690 06 63 b9 08 2e 9f c1 bf 78 16 14 c1 ba 33 53 bf
       -0.13767028261170128 -0.0011720012446984323
0006a0 1c a9 d7 81 65 2f bb bf 23 e4 d9 94 ca 88 c0 3f
       -0.106191963386355 0.1291745402157015
0006b0 8d a6 46 36 f6 c4 cc 3f fc 74 f1 7d 61 5c c3 3f
       0.22476079607195168 0.151256739135455
0006c0 5a bd da 4b 12 bb a9 3f 39 b9 c5 8b 6b 2e a5 3f
       0.050255367049767144 0.04136978226857697
0006d0 c5 a4 71 d4 14 e3 d5 3f 83 c4 b5 80 6e 8e a1 bf
       0.34198494669415097 -0.034289792262719686
0006e0 dd 36 f8 93 3d fa bb bf f4 1f 72 e0 14 f1 c1 bf
       -0.10928711760081052 -0.1401697250296362
0006f0 69 b4 b9 ea b5 50 b4 3f 31 63 e4 85 72 1c 88 3f
       0.07935654621697243 0.011773009024680899
000700 11 6e c2 16 58 10 c0 bf 92 26 81 ce 8f 18 a2 3f
       -0.1254987822656948 0.03534364124113866
000710 dd ff 64 8a 7d 00 aa 3f 82 51 e6 52 d8 5d a2 bf
       0.050784991401542114 -0.03587223064383506
000720 ef 24 65 fd ef ac b8 bf 5a ce b1 a7 80 7a bb 3f
       -0.09638881622699434 0.10733799070458741
000730 fd cd f6 40 d0 4b cc bf ad 1e 8c 2c 3f 0a b1 bf
       -0.22106364414285898 -0.06656260335523241
000740 a2 76 66 ff 5f 3f c7 bf 09 89 cf ea 89 fe b1 3f
       -0.18162155123439044 0.0702902029293321
000750 a7 f8 4c f8 1a f4 ac 3f 68 04 74 ee aa eb bd 3f
       0.05654987603200939 0.11687725373850955
000760 3c 7c 51 26 4a ce 56 3f 9e 8a f6 3b c4 71 c3 bf
       0.0013919567220666137 -0.15190937927134923
000770 76 7a 47 b4 25 c3 d3 3f 72 93 b4 52 46 bd bc 3f
       0.30878584485427696 0.11226310271429243
000780 84 29 7e 4f b9 07 ca 3f 6a b1 05 11 cf 59 c3 3f
       0.20336071378217124 0.15117824870265945
000790 a4 af 1f 6a e9 56 c7 bf d8 12 20 69 78 d6 9b 3f
       -0.18233983690094846 0.027185326973284102
0007a0 39 3c ec 13 ac 6e c3 bf 0f 20 7f f5 18 65 ab bf
       -0.1518149468688266 -0.05350568768295726
0007b0 82 b6 84 e8 5e a9 6b 3f ca 0d a7 30 03 f1 ab bf
       0.0033766606976744504 -0.05457315415290116
0007c0 2f 61 49 c9 8c 5c c0 bf c0 32 d5 a8 4b c1 9e bf
       -0.12782440021943262 -0.030034238986717865
0007d0 c0 64 01 09 0e a6 b2 3f f6 b5 50 a9 ce 6e cb bf
       0.07284629554614508 -0.21431906955096708
0007e0 77 2f 2a da fc 89 b5 bf ad 7f dd 99 89 99 94 bf
       -0.08413677526749362 -0.020116949096859283
0007f0 d0 82 ff db c2 10 97 3f 57 5a a7 3f 77 a5 93 bf
       0.02252487628709582 -0.019185889492144472

fc.0.bias f8 [14]
000000 90 3c 82 d5 29 08 ca 3f 0a de 2f 49 1c f9 c3 3f
       0.20337412762862472 0.15603974889357658
000010 29 11 6b 0e 1a 3d ce 3f a5 df a9 b8 e4 21 bb 3f
       0.23623967842116514 0.10598592289340887
000020 17 e7 bf 5d c7 96 b0 3f d9 a3 03 4a 18 14 c9 3f
       0.06480070151146965 0.19592574705100566
000030 c1 c1 1f 0c b8 fe b8 3f 2e c0 96 d7 b2 3f a6 3f
       0.09763670249936408 0.043454731766701435
000040 d6 ad 5c 87 4e 3c c9 3f c1 d4 b3 4a 62 ad b5 3f
       0.19715291604494095 0.08467687915602352
000050 6c e2 dd 90 81 7c c8 3f 5e 5b f6 e3 07 8c a9 3f
       0.1912996251446829 0.04989647538893992
000060 41 b5 7c 3e ec ec c1 3f 7a 9e 57 ed 49 6c 8a 3f
       0.14004281092767637 0.012901856952296276
