blob_checkpoints/TCN/checkpoints/last-epoch=99.ckpt (torch, 29538 bytes, 48 tensors)

res_blocks.0.conv1.weight f8 [3, 18, 3]
-0.14963533528835768 -0.02483870050533696 0.02098703729534027 -0.15177172627292557 -0.11259109663502746 -0.2357122655719182 0.04620427586145124 0.03215442109622
-0.1207780349430112 0.09688831961401967 0.033079567483472114 -0.00733403293859417 -0.01843484349026466 0.002116278843841536 0.08579413236692592 -0.0636413810595288
-0.11085531692621652 -0.07650030479696644 0.048591248261023894 0.04206109427026167 0.1263756437792614 -0.19723236227527924 0.015776833742996606 0.04742332165466845
-0.11831655880369943 0.06247387705800787 -0.18681960613157092 0.05397493761696977 -2.674670191689702e-05 -0.2387030597857071 -0.16014874572084492 -0.13712985778871684
0.010744871933647206 0.1380113410080341 0.19397919171194758 0.15518397660482194 -0.005456802435219288 0.002891857409849763 -0.1321912407875061 -0.05892458597318001
-0.1967395634947816 0.041489047830572716 -0.01305086615838757 -0.13509151587781634 0.001902323410931413 -0.15261215985551696 -0.013689369088269452 0.14151469880144527
0.018105340338183375 -0.18233771145911185 -0.21616961120173586 0.12108285841578233 0.027144387210810143 0.06930989341899141 -0.054864844763593955 0.0804582976881677
0.21572903458672746 0.10296853110989376 0.1415249189256011 0.07400317286151595 0.07171343299857563 0.04745628704076221 0.16372755007402004 0.046005494033906164
-0.10083492331718515 -0.059537323939582984 -0.014901753543700635 -0.10613946579954929 -0.08646407341158582 -0.0979147283909472 -0.23134254404300045 -0.2208560980201697
-0.16531680523350545 -0.4038240962014814 -0.2716567903920743 -0.06812529086197992 -0.06748858363261521 -0.20536758078600176 -0.2432517391480883 -0.07792399779940809
-0.2978694659222582 -0.06622462623471896 -0.003968050018086633 0.0919047475919812 -0.17983387967195055 -0.12326354781357866 -0.2535151462534886 -0.14222692039051418
-0.05393360414122701 -0.24193949513413715 -0.06911208362846241 0.06418108294177576 -0.04774942663131494 -0.0008886475774203078 -0.19646705583563193 -0.04200499577785775
0.2449839071129259 0.14245866149186706 0.130787688989233 0.035908791563205755 -0.14588659212570482 0.002209660885033204 0.20325365817309446 0.3834158821175776
0.15161966694373 0.20830579107557914 0.0557719725400402 0.06911309870099812 0.04450420608694428 -0.007397603663616831 -0.23281574268829622 0.0870978488361384
0.034397667849079126 -0.02213038231662518 -0.07492580906499327 -0.10293822356415773 -0.09301070327970934 -0.057331165546245864 -0.03472739913459197 -0.23494520131911048
0.058565575255213484 0.04393121268500516 -0.24484539723943632 -0.17876810635970017 -0.23872618740191007 -0.31457592792592065 0.20413352940729262 0.08201093484553389
0.23142087952290102 -0.06720541703399668 -0.09280247793741211 -0.05349096592258505 0.014526763198064407 -0.06708104559616153 -0.3139686351114072 0.05758020988517299
-0.001977911653072022 -0.03495437169954558 0.019459871222331084 -0.01833492151207836 -0.2755159601267353 -0.10380025791532557 -0.1163791426360165 -0.10724074487055493
0.01871919009475739 -0.07155872239521506 0.014010501851012509 -0.08357991284575711 0.04651234864048997 -0.19864284183572764 0.020424942080006316 0.08399020014441651
0.06775785789830414 0.044756211204653326 -0.17728151432508113 -0.13823310253350882 -0.012606073321287029 0.04924571087334872 -0.2508113684376644 -0.06788595372981047
0.09901399781208058 -0.00442444618126334
00000000: d7da b12b 4027 c3bf b9da 61f9 506f 99bf
00000010: 492e 4b3b a07d 953f e45b 6684 416d c3bf
00000020: 9343 de25 c5d2 bcbf d2df f2cb d12b cebf
00000030: 6d45 853b 16a8 a73f 4d66 0f56 8b76 a03f
00000040: e0c6 272e 4feb bebf c84a 1b44 accd b83f
00000050: c6c1 0319 ceef a03f a69f e779 4a0a 7ebf
00000060: 561b 9767 95e0 92bf 9c71 8d8d 2856 613f
00000070: 6963 b4b0 9af6 b53f daac 5232 cd4a b0bf
00000080: 2f2b c998 0361 bcbf 37ac 3c23 8695 b3bf
00000090: cf4a 4ebc f3e0 a83f 3845 a620 0889 a53f
000000a0: e17c 85bc 132d c03f f2b2 d7f8 e83e c9bf
000000b0: 72a7 d763 cd27 903f 8023 269f de47 a83f
000000c0: 421c a376 fe49 bebf 4e0e a375 93fc af3f
000000d0: ed18 4b71 b4e9 c7bf 5aaf bc5f 9aa2 ab3f
000000e0: c053 325c c30b fcbe 1e0c 9e65 d28d cebf
000000f0: cce7 ae0c c17f c4bf 52fb 409f 788d c1bf
00000100: a112 704c 6801 863f 67a5 0d0a 5baa c13f
00000110: 29f0 4066 4fd4 c83f 9fc2 308c 11dd c33f
00000120: 0000 0040 df59 76bf 0000 0020 aab0 673f
00000130: 0000 0080 a4eb c0bf c8cb 5e03 5d2b aebf
00000140: 240b 8513 c32e c9bf 7f23 266f 0d3e a53f
00000150: 3d90 ad9a 69ba 8abf c9c5 54c5 ad4a c1bf
00000160: 8803 8735 ec2a 5f3f 4693 c695 cb88 c3bf
00000170: bfc1 4b04 2c09 8cbf 27b4 a055 271d c23f
00000180: aab2 8ad2 348a 923f e9ad c595 d756 c7bf
00000190: 1510 4021 72ab cbbf fd81 0045 49ff be3f
000001a0: 418f 5cfd bccb 9b3f a818 860d 4bbe b13f
000001b0: bb64 ebb3 3e17 acbf 0834 433d ea98 b43f
000001c0: b57f 2c4e 029d cb3f ce57 a249 255c ba3f
000001d0: 8660 2d11 7d1d c23f da8d 3d37 dff1 b23f
000001e0: 44ab 69c1 cf5b b23f 80c9 a8c1 304c a83f
000001f0: c7d4 823c 06f5 c43f ecb7 9f38 088e a73f
00000200: 7925 f149 51d0 b9bf ce79 6c16 ad7b aebf
00000210: 9368 fc80 cf84 8ebf 9b89 6cbe f42b bbbf
00000220: 92ea 946f 8222 b6bf 1260 3c8c f010 b9bf
00000230: bb47 6bea a19c cdbf d034 0f3b 0345 ccbf
00000240: 8082 fadf 1929 c5bf 6c6a a105 41d8 d9bf
00000250: 2b19 9e29 d362 d1bf 775e 48b8 a870 b1bf
00000260: 8731 8e8b ee46 b1bf ce37 9121 7c49 cabf
00000270: 5c07 2b7c df22 cfbf 9a3d 1fbe d3f2 b3bf
00000280: cb3c a717 4b10 d3bf 6b31 dedb 18f4 b0bf
00000290: 73ba e750 cd40 70bf a033 41cd 1187 b73f
000002a0: 99b0 f3eb cb04 c7bf e3f3 a52a 338e bfbf
000002b0: d0c2 8c97 9739 d0bf 2712 d8e1 7d34 c2bf
000002c0: 3a4b e273 2f9d abbf 901e 9b95 dff7 cebf
000002d0: 5e52 f15a 54b1 b1bf 03bd 41e4 2b6e b03f
000002e0: 1a89 91e3 9c72 a8bf 562e 2f24 841e 4dbf
000002f0: d318 c71d d525 c9bf 6ddf 44c6 ad81 a5bf
00000300: 2a54 8cf6 a15b cf3f 41db 11de 153c c23f
00000310: 70ce 76a7 a6bd c03f 4842 ce1a a362 a23f
00000320: de69 0d6f 69ac c2bf 6525 91a7 fe19 623f
00000330: b3a9 5243 3704 ca3f 3291 9dc4 e289 d83f
00000340: e913 7af3 4568 c33f b556 1ea0 c3a9 ca3f
00000350: 538e 2fdc 248e ac3f b760 a562 65b1 b13f
00000360: c111 5b5b 41c9 a63f 6033 dd1c f34c 7ebf
00000370: 218b 6b00 e8cc cdbf 4b9c 4d6c 0b4c b63f
00000380: dbe0 f034 929c a13f f207 31d1 58a9 96bf
00000390: 0a7c 8f7b 562e b3bf 9965 b7cf 285a babf
000003a0: eca9 c3a8 8ccf b7bf a318 20b2 825a adbf
000003b0: dccd 1d27 cac7 a1bf 8144 0232 af12 cebf
000003c0: c6fe c89c 4efc ad3f 68ed 82e3 267e a63f
000003d0: d418 dc0e 1857 cfbf 57fe 3091 dfe1 c6bf
000003e0: 2b84 cb67 948e cebf 613e a312 0322 d4bf
000003f0: da22 6928 0c21 ca3f c771 132b abfe b43f
00000400: 0cca 940a 339f cd3f 246a 46cc 5f34 b1bf
00000410: 3e9c ba37 e7c1 b7bf 3eb4 89fa 2a63 abbf
00000420: 26c3 d126 35c0 8d3f 055a 0431 392c b1bf
00000430: f37c f1e6 0f18 d4bf 810f b53c 277b ad3f
00000440: d785 a83b fb33 60bf 6982 9a16 8ae5 a1bf
00000450: 07e8 efd9 49ed 933f d98f 13c1 63c6 92bf
00000460: b64d 91b1 0da2 d1bf 5a0c 1059 a792 babf
00000470: dbe6 8e03 06cb bdbf da88 0424 2174 bbbf
00000480: b7f0 0e95 1f2b 933f 7555 6e24 ac51 b2bf
00000490: ca52 01ba 89b1 8c3f 246a 4640 7e65 b5bf
000004a0: a7c7 8a70 77d0 a73f fb6c a2ee 206d c9bf
000004b0: 1a79 06a9 46ea 943f f904 ceba 6180 b53f
000004c0: 1961 b837 9458 b13f fe6d d53e 49ea a63f
000004d0: 0515 1b21 29b1 c6bf 8f92 4d4f 9fb1 c1bf
000004e0: b5d0 2a85 36d1 89bf 0faf 56db bb36 a93f
000004f0: d6e7 3920 4b0d d0bf 1397 204f f960 b1bf
00000500: 53f8 723a fb58 b93f 644a 6c3a 5e1f 72bf

res_blocks.0.conv1.bias f8 [3]
0.12584238714951954 0.13307818443912856 0.31861276016927
00000000: 2ffe a074 9a1b c03f 0c12 fdb8 b408 c13f
00000010: c6fa 40c6 2664 d43f

res_blocks.0.conv2.weight f8 [3, 3, 3]
-0.5331391434326336 -0.8253958431231431 -0.9599721438062577 0.23978609894042915 0.2941236473840837 0.515318011355699 -0.35599672475224503 -0.4518991019746205
-0.6237744678103148 0.27152494220603235 0.37084584905434403 0.8757319827533705 -0.23354005838305894 -0.016118276864449315 -0.16232130354546506 0.18331231451035956
0.27193012744035194 0.28221368859435775 0.2501425296944822 -0.028152756465666715 0.23907470271879772 0.22852683300133125 -0.31767771007641604 -0.2585809381662963
-0.24849185853453498 0.0937517363950252 -0.22336443615199575
00000000: f456 28d2 790f e1bf dffb 0e8b a469 eabf
00000010: 1d01 5780 17b8 eebf 2d06 7e96 4fb1 ce3f
00000020: 0aac 9ffd ebd2 d23f deff b932 7c7d e03f
00000030: ffd0 927c a6c8 d6bf 2ba8 0436 eaeb dcbf
00000040: 4667 6adf f5f5 e3bf 4baf b426 aa60 d13f
00000050: bced 623a f0bb d73f 3295 3f14 ff05 ec3f
00000060: 61d4 8700 a4e4 cdbf 1bb3 0040 4f81 90bf
00000070: 8dff 15c9 f1c6 c4bf f455 e325 c776 c73f
00000080: b2d1 099f 4d67 d13f 4bc3 bf00 ca0f d23f
00000090: bd18 18d0 5502 d03f 3cc9 3f81 13d4 9cbf
000000a0: 4c34 bdf6 ff99 ce3f d8e4 ff04 5e40 cd3f
000000b0: 6f91 dce3 d454 d4bf 75c4 3210 978c d0bf
000000c0: ee31 ddca 94ce cfbf 4785 c221 1d00 b83f
000000d0: e85f 2eb2 3497 ccbf

res_blocks.0.conv2.bias f8 [3]
0.030253990761104157 0.007815008963393403 -0.0869414154002953
00000000: c7d8 91f3 e6fa 9e3f cf65 53bf 5001 803f
00000010: 97ed cfe7 ca41 b6bf

res_blocks.0.conv3.weight f8 [3, 18, 1]
0.34448753080763067 0.06364148495076766 0.22366803023387594 0.15353876636492486 0.32251217244289804 -0.11967635075158911 -0.18754687198399966 0.13156820539014133
-0.05541437827720645 -0.007782963376711361 0.045734736875242724 -0.0272739110035952 -0.13955779870310375 0.0425135463811617 -0.12353218720251564 -0.20216618855093493
0.2081736919535889 0.2389015717743526 -0.3938725815690335 0.028496030806571097 -0.34924207373306493 0.09098833200722256 -0.25368746732002084 0.4595314633721047
0.2972179971479817 -0.15982756322961275 -0.122234887542494 0.08597741961527557 -0.03627530492691039 0.19356429164498248 -0.11292752139087514 0.16933842444080885
0.006561564305455219 0.09555268491105466 0.029980477410413115 0.04358773312401352 0.2950108142177351 0.0259886339576807 0.08229705016945695 -0.15092547143442386
0.31576972054627456 0.05978099463687944 -0.07840635089381577 0.24034609274426488 -0.09769287408306809 -0.004598071245707849 -0.1349333004503549 -0.11138667071802355
0.12928223411693324 0.25077732281247134 -0.08486348102440598 -0.14279574917218188 -0.0958240468761417 0.1523283826966353
00000000: 4fb5 ac6d 150c d63f e44c 88f0 ce4a b03f
00000010: 44f3 816d 27a1 cc3f 0a4f 1a86 28a7 c33f
00000020: f310 4d18 0aa4 d43f d82b 95fc 1ba3 bebf
00000030: 58b6 d130 8901 c8bf 6b0a ac19 3ad7 c03f
00000040: 5688 dbfc 455f acbf 81fb b352 07e1 7fbf
00000050: da35 571e 8b6a a73f da85 2d2f b1ed 9bbf
00000060: 4671 aaaa 07dd c1bf c429 b0e6 55c4 a53f
00000070: 7dc4 0930 ce9f bfbf 4074 17e8 94e0 c9bf
00000080: db03 6a7f 6fa5 ca3f 81ee dda2 5394 ce3f
00000090: 6a53 2858 3535 d9bf f126 8541 102e 9d3f
000000a0: ea86 446d fb59 d6bf 68e2 49e6 024b b73f
000000b0: 0bda e25b 6a3c d0bf 36a3 aaa7 f668 dd3f
000000c0: fe1f 62a2 9e05 d33f 1308 89c6 3a75 c4bf
000000d0: 27dd 6c1c c94a bfbf fd2b 71bd 9d02 b63f
000000e0: 1884 a040 ad92 a2bf 09f1 24f7 b6c6 c83f
000000f0: b030 316b d1e8 bcbf edf7 76a9 e1ac c53f
00000100: acf7 a381 4ce0 7a3f c3eb bc08 2476 b83f
00000110: 8519 fcc7 33b3 9e3f fd7f 8ca0 2151 a63f
00000120: 2a04 c209 75e1 d23f c1ef a9b3 c39c 9a3f
00000130: 95fb 0863 6b11 b53f 9edc f89d 8651 c3bf
00000140: 3f0d b433 9235 d43f fc86 c651 9d9b ae3f
00000150: 513c e348 7012 b4bf 906c 0728 a9c3 ce3f
00000160: a430 3d73 6602 b9bf dcf8 ff59 6dd5 72bf
00000170: ccad 4990 7e45 c1bf 30b9 f13b d683 bcbf
00000180: ae36 befb 518c c03f 42b6 0354 bc0c d03f
00000190: dfe1 9ff3 9cb9 b5bf 49e6 5990 2147 c2bf
000001a0: cbde 80bb ec87 b8bf a8a1 f716 7f7f c33f

res_blocks.0.conv3.bias f8 [3]
-0.2087144120452339 0.20698652551964833 -0.21548964279486835
00000000: 3c15 f862 27b7 cabf 4fe7 e8d2 887e ca3f
00000010: 9320 3724 2a95 cbbf

res_blocks.1.conv1.weight f8 [3, 3, 3]
0.1498566912620467 -0.16514730487770934 0.12022180623866954 0.2007983676567581 -0.17444359360373923 -0.04264504385417693 -0.3067195280637371 -0.08524045377587695
-0.34013284774925423 0.20615545430357013 -0.0481302247444512 0.08126733210479091 0.24250013642877236 0.1945245643332804 -0.3508143227020326 -0.15941425082872823
-0.06556488609840302 -0.23136420045356573 -0.27810038521002256 -0.03069353570394935 -0.40577346600979064 0.1493374305080184 -0.014405275792560372 0.2608816164991602
-0.28272417591016896 0.1877494631019859 -0.06968703664378945
00000000: 4854 070a 812e c33f 6c74 bc00 8c23 c5bf
00000010: 82a6 0f36 dbc6 be3f dd85 16cb c2b3 c93f
00000020: d22b c3ec 2a54 c6bf b65e 6139 92d5 a5bf
00000030: f302 85f1 4aa1 d3bf b77a 4381 51d2 b5bf
00000040: 9c37 5890 bcc4 d5bf 0e1c 104b 4d63 ca3f
00000050: 15fe 735a 86a4 a8bf 2b8d 9f95 efcd b43f
00000060: cd59 9e95 3e0a cf3f 4d40 0a51 2ee6 c83f
00000070: cc4f beea bd73 d6bf 7ab1 e9a8 af67 c4bf
00000080: ce00 8f41 dcc8 b0bf 7be5 3495 579d cdbf
00000090: e4d9 de8e 65cc d1bf 5433 3050 206e 9fbf
000000a0: ff2e 8645 31f8 d9bf d8e0 0c2a 7d1d c33f
000000b0: 0fec 5963 8380 8dbf da74 bfce 48b2 d03f
000000c0: 8ea7 5424 2718 d2bf d3aa eea5 2c08 c83f
000000d0: 4419 5777 02d7 b1bf

res_blocks.1.conv1.bias f8 [3]
0.19934853152463172 -0.34003925489420056 0.05157172062959702
00000000: 98b3 b3af 4084 c93f 7b1d c801 34c3 d5bf
00000010: 8f50 01cb 9b67 aa3f

res_blocks.1.conv2.weight f8 [3, 3, 3]
-0.14382133186280144 -0.28559023803653244 -0.4372233216757569 -0.22563243174124412 0.05611363479361392 0.21814739040312806 -0.29711259446245847 -0.16915435320886327
-0.5013209450319462 0.23842388513630755 0.26662297854172323 -0.2527275673646696 -0.11614503041754443 0.13985439453316384 -0.09376496753802736 -0.07956224720303538
-0.03384389932816168 0.13927240637371247 0.01691030447208787 0.052478129317923394 0.05311297831092594 0.05125442364512904 0.14754569837217058 0.2083849336303892
-0.14141646564581664 -0.29690731851551455 -0.3540000545038541
00000000: c8b0 68c6 bc68 c2bf eb1e 1b47 1c47 d2bf
00000010: d555 e986 77fb dbbf af6f 9f05 86e1 ccbf
00000020: 78b5 9824 edba ac3f 6d9d bef1 40ec cb3f
00000030: c58a 1c8b e403 d3bf 6f09 818f d9a6 c5bf
00000040: e4c8 f638 d20a e0bf 2573 9f82 ac84 ce3f
00000050: 52b9 4cd3 5910 d13f c83f 283f b02c d0bf
00000060: c07c 3c43 aebb bdbf 9864 5cb1 bfe6 c13f
00000070: ab19 161d fb00 b8bf d7b9 bb01 315e b4bf
00000080: 3130 91d1 fc53 a1bf de1e 4e9f add3 c13f
00000090: 242c b152 ef50 913f 90fa 59d2 69de aa3f
000000a0: ea5a add1 9f31 ab3f 968d a912 053e aa3f
000000b0: 1844 9606 c7e2 c23f b3f8 7585 5bac ca3f
000000c0: c347 884b ef19 c2bf 72e6 bd8d 8700 d3bf
000000d0: d214 38d8 efa7 d6bf

res_blocks.1.conv2.bias f8 [3]
0.09005957274496612 -0.2932915091576015 0.03426123440678299
00000000: f8a0 a1e7 240e b73f 42b0 01c0 49c5 d2bf
00000010: 236f 9842 b08a a13f

res_blocks.2.conv1.weight f8 [3, 3, 3]
-0.2580768193015653 -0.1211851375010871 -0.2686327521270781 -0.05181350228396677 -0.041565739709124284 -0.28624562863023323 0.05245778281748082 -0.105017702192837
-0.08973315832555459 0.007374087964734103 0.14359566760983147 0.15070910503621923 0.02022704377405015 0.17974561867967673 0.26982918072285667 0.11134205162867779
0.009300313544706226 0.16895424133799278 -0.32928816400086125 -0.24593023119140053 0.11228787692517588 0.21211112132263163 -0.2860762447988787 -0.07295003622668743
-0.15844261824866282 -0.2973255264130317 -0.0005990425459327033
00000000: 1161 b0a2 5484 d0bf 2314 543a fd05 bfbf
00000010: 2f4c 416d 4731 d1bf 230a 9aa3 4c87 aabf
00000020: e595 5ec9 1a48 a5bf 7fbf 652f d951 d2bf
00000030: 2156 3e1b bfdb aa3f 6757 6bac 70e2 babf
00000040: 1603 6094 c0f8 b6bf c47d 57aa 4a34 7e3f
00000050: 35a2 1dc4 5761 c23f cf84 ab9a 6f4a c33f
00000060: be68 04ee 65b6 943f 3b0c ea88 e701 c73f
00000070: 5e83 ad9c e144 d13f bd2a 6aa6 e980 bc3f
00000080: deef 22f4 0a0c 833f 0999 88e6 4aa0 c53f
00000090: 46fd d5a9 0e13 d5bf db4a 084e a47a cfbf
000000a0: e382 21f7 e5be bc3f 6f6b 990c 7526 cb3f
000000b0: 14b7 e4bc 124f d2bf 5bec d583 daac b2bf
000000c0: ddd6 d503 d947 c4bf e96f 0da5 6107 d3bf
000000d0: c48c 6412 22a1 43bf

res_blocks.2.conv1.bias f8 [3]
0.10096943546063054 -0.3328915467809546 -0.332841968042394
00000000: 11f1 3207 22d9 b93f dd7f a258 184e d5bf
00000010: 719d de65 484d d5bf

res_blocks.2.conv2.weight f8 [1, 3, 3]
-0.11733604031456095 0.08782010645343946 -0.2465724398345449 0.2987458240731519 -0.2556870265718814 0.21764248741337 0.00731813907623291 0.15949273109436035
-0.07746155345227382
00000000: a30d cb17 bc09 bebf 3415 26e5 607b b63f
00000010: 1497 978a af8f cfbf 0b7d 0dce a61e d33f
00000020: 4dd0 481e 2d5d d0bf c88b d482 b5db cb3f
00000030: 0000 0000 a0f9 7d3f 0000 0000 426a c43f
00000040: 025e c636 85d4 b3bf

res_blocks.2.conv2.bias f8 [1]
0.0031489297823313373
00000000: 8926 d7cd c8cb 693f

res_blocks.2.conv3.weight f8 [1, 3, 1]
0.5515061535301222 -0.2488156425496067 0.3843723968982271
00000000: 548c 9e3b f0a5 e13f baec bde3 30d9 cfbf
00000010: e06e 8aae 8e99 d83f

res_blocks.2.conv3.bias f8 [1]
0.3507521815364741
00000000: b5c9 2c47 b972 d63f

exp_avg f8 [3, 18, 3]
-2.8296606084979515e-05 -0.00013732752249302033 -0.0003369465750937713 -4.982915419320437e-05 -0.00013253839939416024 -0.0002301873816405269 -3.860830403612511e-05 -0.00012592758876280518
-0.00022869691607630536 -8.930442615322585e-05 -0.0001867111984440665 -0.000296456730495706 -4.516023569621344e-05 -0.00019501480557795105 -0.00038551697703336407 -0.00014088319829356368
-0.00017680523213214696 -7.98852914443073e-05 1.05479486518572e-05 -5.732179483917565e-05 -0.00017444360125578792 -2.630471222060723e-06 -2.3133830498339252e-05 -1.7322353448521456e-05
-2.5007498990139423e-05 -2.8309448808019228e-05 -1.3418428726858556e-05 -6.326359116308595e-05 -8.73516467204967e-05 -7.76611752315774e-05 -2.5007507983144372e-05 -2.8309547265127576e-05
-1.3418754983008525e-05 -8.930442615322638e-05 -0.00018671119844406486 -0.0002964567304957038 0.0 0.0 0.0 -2.630471222060723e-06
-2.3133830498339252e-05 -1.7322353448521456e-05 -3.434201150166296e-05 -0.00010865234953216644 -0.00010159307297484626 -2.628099822473994e-06 -2.313532407615449e-05 -1.7324149357601555e-05
-5.9404362739534274e-05 -8.1083385270568e-05 -6.73064838108486e-05 -3.434067179256325e-05 -0.00010865219536844313 -0.00010159240619677471 0.0001327641547643826 0.0002277820251559316
0.00032101238969220745 0.00027410779971950817 0.0003413764436987474 0.0003561601686399733 7.697697649377372e-05 0.00013441147907178628 0.0001586392314409892 0.0001806467967678979
0.0002118265972286401 0.00021725560686992635 6.11058409352888e-05 9.959201903335167e-05 0.00013406875960127323 5.793331275740584e-05 9.083127803138977e-05 8.604779718137247e-05
6.972816466490456e-05 0.00010562990675444109 0.00011204222738848827 -1.6320739590295952e-06 1.269913206131614e-05 3.2888281737647096e-06 1.627829697156252e-05 2.393078686618609e-05
1.3693115756030452e-05 1.9878915449707455e-05 3.56068598927666e-05 -6.123253889652883e-06 1.627793587002273e-05 2.3931094164956213e-05 1.3693969313050728e-05 0.00018064679676789856
0.00021182659722864084 0.0002172556068699269 9.438656447294589e-16 -2.2920823457786644e-07 -2.2920823457786644e-07 -1.6320739590295952e-06 1.269913206131614e-05 3.2888281737647096e-06
2.7656271527140484e-05 5.958162508326171e-05 7.677764686696006e-05 -1.6309144827437328e-06 1.2702610064787106e-05 3.2926379812780755e-06 -7.3157239114574335e-06 4.65006647736873e-06
-4.727592427223023e-05 2.7655292315914044e-05 5.9581142761726205e-05 7.677743973456017e-05 -5.691978102486589e-06 -4.86265152399662e-06 -6.545294782593418e-06 -8.698822239888737e-06
-1.1012716285311882e-05 -1.6126213621739812e-05 -4.028011549296948e-06 -4.236875149874999e-06 -6.666939702484591e-06 -7.479493589700154e-06 -7.060592301711401e-06 -6.930725217808597e-06
-1.9372079550076297e-06 -2.6403174340213307e-06 -5.339420766578793e-06 1.4714422488395515e-06 3.940623369392834e-06 4.8156688040408145e-06 -4.129516324176709e-06 -1.0242384608598162e-06
-3.938947811803437e-06 -8.946844330338134e-07 -1.4417401961581677e-06 -1.08205682575126e-06 -1.6867222837551959e-06 -1.3144888514279822e-06 -1.4253167624459035e-06 -7.3685822458512545e-06
-5.051359184870753e-06 -3.032063914307188e-06 -1.6867383816361322e-06 -1.3145141303548808e-06 -1.4254486674899048e-06 -7.479493589700144e-06 -7.060592301711419e-06 -6.93072521780864e-06
4.924897211647834e-108 1.452161775887186e-106 3.5813281210810796e-89 -8.946844330338134e-07 -1.4417401961581677e-06 -1.08205682575126e-06 -1.9901505516496958e-06 -3.3945342551084517e-06
-5.1019593671270745e-06 -8.945661853549517e-07 -1.4412770402491063e-06 -1.0823739161803535e-06 -6.326664327161131e-06 -3.2369416187162403e-06 -6.176989436630034e-07 -1.990156133579605e-06
-3.394544433776543e-06 -5.101940622333655e-06
00000000: d829 acf6 cfab fdbe f4e8 966f f2ff 21bf
00000010: 2c41 4185 0615 36bf e159 80b3 f41f 0abf
00000020: 4e7a 852e 405f 21bf 59b5 5c8d ce2b 2ebf
00000030: fb3f bb39 eb3d 04bf b47a 34c0 6d81 20bf
00000040: f9c0 ec8c cbf9 2dbf 0d8d de5b 1e69 17bf
00000050: 1853 73fb fc78 28bf fefe 4ff6 b76d 33bf
00000060: 1fb7 16e2 4dad 07bf e292 a46c 9c8f 29bf
00000070: 5607 f4ce e643 39bf 0735 5d75 4177 22bf
00000080: b76f 2961 992c 27bf d03d 53db 02f1 14bf
00000090: ef0d 2406 e31e e63e b1f5 9adf 990d 0ebf
000000a0: 7c97 f11f 5bdd 26bf 15da fbd8 e410 c6be
000000b0: 0ef9 0bba f041 f8be f6f0 9710 ef29 f2be
000000c0: c075 bd3e e638 fabe 0adc 3e82 42af fdbe
000000d0: 025b 2ccd f623 ecbe 5f0c 6538 8c95 10bf
000000e0: 3428 19dd 11e6 16bf 8e85 c6d4 c05b 14bf
000000f0: 8c5a f2dc e638 fabe 8941 5246 49af fdbe
00000100: a181 4aa4 2324 ecbe 348d de5b 1e69 17bf
00000110: db52 73fb fc78 28bf d6fe 4ff6 b76d 33bf
00000120: 0000 0000 0000 0000 0000 0000 0000 0000
00000130: 0000 0000 0000 0000 15da fbd8 e410 c6be
00000140: 0ef9 0bba f041 f8be f6f0 9710 ef29 f2be
00000150: 7405 bd87 4e01 02bf 987f c826 897b 1cbf
00000160: 3d3c 26b4 cba1 1abf a37d 2928 cd0b c6be
00000170: 0c77 585d 5742 f8be ba67 8f7a 6a2a f2be
00000180: 63f9 945c 1e25 0fbf fa9d b2f3 6941 15bf
00000190: fd89 4c96 dca4 11bf f751 887f 2001 02bf
000001a0: a393 c380 867b 1cbf dedd a03f c0a1 1abf
000001b0: 09a1 d467 d366 213f 6abe 83b2 18db 2d3f
000001c0: 3572 20b7 b109 353f fa41 0e09 c4f6 313f
000001d0: e7ab 4ba9 585f 363f 2633 c546 6057 373f
000001e0: df5d e762 d62d 143f 72c0 4ad0 199e 213f
000001f0: 637f 2e9f 0ccb 243f 8532 222b 80ad 273f
00000200: 0a42 739d b8c3 2b3f a4f1 e773 e379 2c3f
00000210: f594 885a be04 103f 63eb d7db 811b 1a3f
00000220: 33ca 34e0 9992 213f b14b 1978 ad5f 0e3f
00000230: 2ff0 7179 95cf 173f 3085 2ee6 918e 163f
00000240: f085 54bf 6047 123f cb9e defa b3b0 1b3f
00000250: 9823 43cf 065f 1d3f dfa0 9b4b b461 bbbe
00000260: 4f8b a66b cba1 ea3e 95d1 ce68 b496 cb3e
00000270: f15a cf0c ac11 f13e 0a3d bd26 df17 f93e
00000280: b4cc d07f 6fb7 ec3e 04d5 f3aa 34d8 f43e
00000290: d572 d863 12ab 023f 52f1 7e36 cbae d9be
000002a0: 5f98 3e3c 9311 f13e 74dd cb44 f417 f93e
000002b0: dff4 aecf e4b7 ec3e 9d32 222b 80ad 273f
000002c0: 2542 739d b8c3 2b3f b8f1 e773 e379 2c3f
000002d0: 1d48 0adf cf00 d13c 7ee5 eaf3 88c3 8ebe
000002e0: 7ee5 eaf3 88c3 8ebe dfa0 9b4b b461 bbbe
000002f0: 4f8b a66b cba1 ea3e 95d1 ce68 b496 cb3e
00000300: 4f16 0082 ecff fc3e 938d a50c e93c 0f3f
00000310: 311b efed 7520 143f 0820 0c70 b95c bbbe
00000320: dbd0 046f a9a3 ea3e 2966 8cdf e29e cb3e
00000330: 2b57 66e0 32af debe 45e7 5a8a f880 d33e
00000340: 8401 9c63 44c9 08bf cbc5 8837 a9ff fc3e
00000350: 5d02 1a7a d83c 0f3f a8c1 f45e 7220 143f
00000360: 4270 f506 b7df d7be d803 1e79 3b65 d4be
00000370: ccab 1fee f473 dbbe 0d40 6c06 253e e2be
00000380: 34bc 7d33 6818 e7be b2c3 39f6 d8e8 f0be
00000390: c7d4 4162 0be5 d0be fac4 885f 4fc5 d1be
000003a0: a33e 5f6e 92f6 dbbe 79f9 fd8a 0b5f dfbe
000003b0: 8402 6cd5 409d ddbe 0552 d13d cf11 ddbe
000003c0: ff7d 0256 1f40 c0be 7ffc 1fdc 0926 c6be
000003d0: 44f4 facd 2865 d6be da22 b9dc cbaf b83e
000003e0: 2805 c84d 3687 d03e f7ab 1df6 c832 d43e
000003f0: 6421 cbcd 0852 d1be 35ab ea18 122f b1be
00000400: 10e1 e5ba 6985 d0be 6035 e7df 4705 aebe
00000410: 87ed 221c 3a30 b8be 06f4 d30f 6627 b2be
00000420: 008f 89c3 6a4c bcbe 6894 d7c6 af0d b6be
00000430: dbc7 835a b0e9 b7be 83a8 0277 f4e7 debe
00000440: 38cb 3a0a db2f d5be 5a19 d5c3 4e6f c9be
00000450: c320 b076 7c4c bcbe 5d3b 3a92 cb0d b6be
00000460: 94e4 7b62 41ea b7be 6ef9 fd8a 0b5f dfbe
00000470: 9a02 6cd5 409d ddbe 3852 d13d cf11 ddbe
00000480: 5a60 e61c f621 a729 b8ad 92f5 bd50 f529
00000490: 2834 8501 fd3c 922d 6035 e7df 4705 aebe
000004a0: 87ed 221c 3a30 b8be 06f4 d30f 6627 b2be
000004b0: e990 16d6 d0b1 c0be f338 33f1 b479 ccbe
000004c0: 939c 82e9 2f66 d5be d5ba 60d8 4304 aebe
000004d0: d874 56dd 3c2e b8be bc5d d9b4 c228 b2be
000004e0: 4e34 893f 3489 dabe cef6 5e79 4727 cbbe
000004f0: 5140 9057 feb9 a4be 26c9 ace7 d3b1 c0be
00000500: 9863 b889 ba79 ccbe d86e 76c2 2a66 d5be

exp_avg_sq f8 [3, 18, 3]
1.0806552963564238e-06 1.7841689042862915e-06 2.237711921793017e-06 3.6812760079933766e-06 4.332272540793506e-06 5.291766778144477e-06 8.744562460581609e-07 1.1959873989657545e-06
1.6995468732340745e-06 3.744509315080369e-06 4.448191724935754e-06 5.409736050126882e-06 1.528070804087566e-06 2.1748752289426867e-06 2.9582721039207187e-06 1.1014289974236463e-06
1.268124329098076e-06 1.4973975449553505e-06 7.186699022447267e-07 8.345295335600798e-07 1.3975678273341804e-06 1.0681279046088584e-08 1.9743424334651358e-08 3.6254746187467616e-08
3.677285888679302e-08 4.239549801028243e-08 5.802904381380226e-08 2.7511266008117714e-07 3.1923107683422477e-07 4.0133105350167307e-07 3.67735377472996e-08 4.2396124042501656e-08
5.802986145962656e-08 3.744509315080385e-06 4.448191724935785e-06 5.409736050126902e-06 0.0 0.0 0.0 1.0681279046088584e-08
1.9743424334651358e-08 3.6254746187467616e-08 2.1727743736266927e-07 3.261863746791469e-07 4.4760172975656695e-07 1.0684238862208259e-08 1.974688868965259e-08 3.625900072912778e-08
2.8025577312873944e-07 3.32905730533603e-07 3.9912051079104575e-07 2.1727708285622135e-07 3.261846497286633e-07 4.476012069934117e-07 1.7069398227610366e-06 1.996313441965718e-06
2.4892056076613747e-06 3.340347716642667e-06 3.854760455678309e-06 4.472353549532414e-06 1.1779686974276454e-06 1.3506795147657748e-06 1.7188310730077109e-06 1.6703856099126171e-06
1.919308039422338e-06 2.262789024737293e-06 1.0172612383968872e-06 1.1861748634338845e-06 1.5109413755237373e-06 3.4444819857585013e-07 4.0902162236449744e-07 5.120344210444853e-07
6.875107849264114e-07 7.810754216916429e-07 1.0379105794911592e-06 1.7256865919760503e-08 2.0203426711796884e-08 3.329548770180054e-08 4.8984303973185016e-08 5.357054862297473e-08
6.013244472540808e-08 5.599147145443269e-07 6.403530704666172e-07 7.295261323888212e-07 4.898035857651047e-08 5.356238588327563e-08 6.012513526456672e-08 1.6703856099126222e-06
1.9193080394223412e-06 2.2627890247373004e-06 1.038928683939338e-09 2.085617761706906e-09 2.1304544503824213e-09 1.7256865919760503e-08 2.0203426711796884e-08 3.329548770180054e-08
1.2481621936753125e-07 1.4014563884865306e-07 2.0385230926855998e-07 1.7256855153262883e-08 2.0205898373396085e-08 3.3294893119741676e-08 5.399824099841515e-07 6.318698026085987e-07
7.524281738173252e-07 1.2481390764085213e-07 1.4014544875123728e-07 2.0384763356340278e-07 1.0043982054837768e-08 1.1005306529650918e-08 1.5311684630336413e-08 1.938716325782022e-08
2.3217884785580468e-08 3.708198594112334e-08 1.1911031382549763e-08 1.3601354841946299e-08 1.8471574673569144e-08 1.5036066214101948e-08 1.8363135425388066e-08 2.7691757949661186e-08
1.2862522262462422e-08 1.430698109144166e-08 1.873683567651705e-08 2.5939920769998448e-08 3.243975124092201e-08 4.5029380519844436e-08 8.842449243843147e-09 1.0452636244404997e-08
1.2702912481257338e-08 6.648249874142424e-10 6.453596469765343e-10 8.150867586732619e-10 1.2126686777101771e-09 1.3016092575362626e-09 1.6699048807196887e-09 1.7568037970061264e-08
2.070198268545592e-08 2.751317470312295e-08 1.210889226201708e-09 1.2999024624514143e-09 1.6675957150335136e-09 1.5036066214101994e-08 1.836313542538812e-08 2.7691757949661262e-08
8.032359250827369e-10 9.365134986606864e-10 1.1671974881859597e-09 6.648249874142424e-10 6.453596469765343e-10 8.150867586732619e-10 5.2445699480831365e-09 5.986290184022999e-09
6.921702903628893e-09 6.638852499861395e-10 6.445439654986954e-10 8.139632242294479e-10 1.9320105028161844e-08 2.2859444039859143e-08 3.032855259036774e-08 5.244501317192168e-09
5.986487305069979e-09 6.9218473113747955e-09
00000000: b3c9 5f10 6121 b23e 0328 c874 f2ee bd3e
00000010: 4632 8923 73c5 c23e 7dc6 4ee3 7ae1 ce3e
00000020: 4f8a 2102 be2b d23e 6ebb a8c6 fd31 d63e
00000030: 5dc7 fc9e 8557 ad3e d526 450d ba10 b43e
00000040: 43ee 8f8c 7f83 bc3e 81a6 20c4 4569 cf3e
00000050: 9f92 8ba1 35a8 d23e bf18 2eec a8b0 d63e
00000060: e626 fe9d 03a3 b93e 1b26 354d 823e c23e
00000070: e705 c749 d7d0 c83e 80f4 65fd 997a b23e
00000080: d6c4 ff71 8d46 b53e 58c8 1703 461f b93e
00000090: ac74 fed3 531d a83e ffdd 0bda 8d00 ac3e
000000a0: ed83 a613 8272 b73e 4b89 a762 18f0 463e
000000b0: a0fd e7f9 0733 553e 6430 d77a d076 633e
000000c0: d1e9 28f3 05be 633e 8f24 15fa cac2 663e
000000d0: 3d69 3178 7327 6f3e b34b 5b46 6676 923e
000000e0: 9e3e ab1f 596c 953e 6526 c0a3 d0ee 9a3e
000000f0: abaa cad5 1dbe 633e b828 e100 e1c2 663e
00000100: af51 e43c 9027 6f3e a7a6 20c4 4569 cf3e
00000110: c492 8ba1 35a8 d23e d618 2eec a8b0 d63e
00000120: 0000 0000 0000 0000 0000 0000 0000 0000
00000130: 0000 0000 0000 0000 4b89 a762 18f0 463e
00000140: a0fd e7f9 0733 553e 6430 d77a d076 633e
00000150: f1a4 f88c 9829 8d3e 6d55 ddd8 d6e3 953e
00000160: 62e4 d539 bd09 9e3e ccc4 44f1 b8f1 463e
00000170: 4583 2dc2 fb33 553e 6255 582c 6677 633e
00000180: da95 dbec c1ce 923e c3c2 fee2 4657 963e
00000190: 9c2a eb91 d6c8 9a3e 3497 b16e 9529 8d3e
000001a0: fc34 be42 cfe3 953e d7ab 41ed ba09 9e3e
000001b0: fcaf db2e 40a3 bc3e eacf caeb 0cbf c03e
000001c0: 06e6 3841 87e1 c43e adad df93 5705 cc3e
000001d0: 722e 5f7c 042b d03e bc92 cc2e 27c2 d23e
000001e0: c7a0 ac47 56c3 b33e 7356 f6d4 1fa9 b63e
000001f0: d290 3ec0 52d6 bc3e 49e1 a566 4006 bc3e
00000200: 8e36 d9c0 ae19 c03e d6ff 046c 4dfb c23e
00000210: 38ec 628f 1a11 b13e 3f50 0f0e 95e6 b33e
00000220: 0f99 7c9c 7159 b93e fa4b b032 931d 973e
00000230: 704d 841e f072 9b3e 5223 7a99 572e a13e
00000240: 5dd9 5934 ac11 a73e 0185 4204 6335 aa3e
00000250: fda4 30c0 ca69 b13e 1d09 b4fb 8787 523e
00000260: b91d 0bc4 79b1 553e ab8e 03d4 18e0 613e
00000270: 6ac4 3dfa 594c 6a3e 5007 a21d aec2 6c3e
00000280: 6b81 a827 4524 703e adfe 787a a1c9 a23e
00000290: 923f 314b 977c a53e 7977 3fee 947a a83e
000002a0: 3a6d 4429 cf4b 6a3e e2c1 35ea 8ec1 6c3e
000002b0: 1aea c590 c423 703e 61e1 a566 4006 bc3e
000002c0: 9636 d9c0 ae19 c03e e8ff 046c 4dfb c23e
000002d0: 01dc 5db5 41d9 113e 9b94 fb6b 52ea 213e
000002e0: d6cc cd3b eb4c 223e 1d09 b4fb 8787 523e
000002f0: b91d 0bc4 79b1 553e ab8e 03d4 18e0 613e
00000300: b546 8413 a7c0 803e 0abd 7213 5ecf 823e
00000310: 86be 07e0 4f5c 8b3e 3d54 c039 8787 523e
00000320: fd5a 8ab1 27b2 553e 68ac 7ee8 03e0 613e
00000330: 1985 8ce0 691e a23e 6264 f263 b833 a53e
00000340: b041 670d 4f3f a93e 5d93 f8bd 92c0 803e
00000350: 040a 6367 5ccf 823e 553b 47bf 265c 8b3e
00000360: 0843 b7ce bc91 453e f998 1633 3ba2 473e
00000370: be4a c804 d870 503e 050f e554 1ad1 543e
00000380: 921e 1365 15ee 583e 8819 2264 82e8 633e
00000390: bfe8 f7a3 2894 493e fb8b c884 6c35 4d3e
000003a0: af6f 4483 6dd5 533e eeb8 cb18 1525 503e
000003b0: 35c0 6fc7 9eb7 533e c220 223b dabb 5d3e
000003c0: 9704 bf13 3f9f 4b3e ef9c b295 58b9 4e3e
000003d0: 14f7 ae98 571e 543e b51d 0ea6 4fda 5b3e
000003e0: e382 3347 7c6a 613e 16e8 a87a ca2c 683e
000003f0: 75f8 f418 30fd 423e 4d0f 90c5 6572 463e
00000400: 113e 56ff 7f47 4b3e 041a 65c8 dcd7 063e
00000410: 9434 9abb a42c 063e c5eb 1836 9401 0c3e
00000420: 92b1 1f8d 5fd5 143e 5df8 e6bd 895c 163e
00000430: 5d4c e8bf 51b0 1c3e a6bb 05c5 10dd 523e
00000440: 313e 0886 843a 563e 35f1 5c8d c38a 5d3e
00000450: a06b 2511 8ccd 143e 1b81 b60f 0855 163e
00000460: 388d 36dc 29a6 1c3e fcb8 cb18 1525 503e
00000470: 45c0 6fc7 9eb7 533e d920 223b dabb 5d3e
00000480: 157c a681 5699 0b3e d978 fd75 d416 103e
00000490: 0f2c 108b 630d 143e 041a 65c8 dcd7 063e
000004a0: 9434 9abb a42c 063e c5eb 1836 9401 0c3e
000004b0: 33f5 3834 7786 363e c5a1 dfe3 feb5 393e
000004c0: 967e e129 7eba 3d3e a570 a6ae 98cf 063e
000004d0: 6d77 3efb 7725 063e 3c2d 963c b2f7 0b3e
000004e0: 33ec 3887 abbe 543e 46a4 a35e 8e8b 583e
000004f0: bf11 4a14 5348 603e 007a d8e2 6386 363e
00000500: 1923 f15f 36b6 393e b439 8ecf a6ba 3d3e

exp_avg f8 [3]
-0.0006042493579561975 0.00037125136604509475 7.81721584290126e-06
00000000: 2413 939d cfcc 43bf 9f57 cb79 9054 383f
00000010: 6854 eaf6 d564 e03e

exp_avg_sq f8 [3]
1.3821656475895212e-05 1.1301111085191187e-05 7.31724426473937e-07
00000000: 28f8 5400 72fc ec3e 7b47 70e1 3cb3 e73e
00000010: 3cfd cc07 778d a83e

exp_avg f8 [3, 3, 3]
7.367753972120623e-06 1.0161339382370565e-05 2.322457469772511e-05 -8.256568802471985e-06 -6.96989434118127e-05 3.926186663165476e-05 1.1747157859613527e-05 1.1662735821226542e-05
3.0296318388957846e-06 1.4467785375433586e-05 5.782191427827868e-06 2.253167165144153e-06 -3.8308006747194166e-05 -2.342134652213746e-06 -7.79081246727452e-05 2.1840612425347093e-05
3.1165624636118536e-05 1.9624190303497936e-05 1.5727982871719955e-07 2.1007362112729487e-07 1.61226236128613e-07 2.422636435768539e-07 4.65082835615331e-13 3.3901930992654156e-08
1.2953645872342024e-52 1.4499012060351096e-07 2.9679943195959225e-68
00000000: 8799 6dca 10e7 de3e f60e c0d9 534f e53e
00000010: 5883 e29e 4c5a f83e e857 ec2c b650 e1be
00000020: a563 e6ba 6a45 12bf 6218 1e77 a395 043f
00000030: 8d6f 1e15 b5a2 e83e 5a31 b534 6275 e83e
00000040: 4bc4 a5b7 156a c93e a75b f347 5557 ee3e
00000050: 7900 5fad 9440 d83e edc5 aabf a3e6 c23e
00000060: 2cfc d716 9d15 04bf dab0 5724 b2a5 c3be
00000070: ce53 e763 536c 14bf 2b56 1c75 cbe6 f63e
00000080: 00ff 64b5 fa56 003f f047 ca16 d493 f43e
00000090: 6f78 0001 181c 853e 0f25 ea1c 1332 8c3e
000000a0: e9bf 79f8 b0a3 853e 730a bcc5 0e42 903e
000000b0: b75e 5501 185d 603d b441 9227 7233 623e
000000c0: b451 480f 73d0 2835 fea9 8f96 d275 833e
000000d0: 0c5c e374 fd9a e931

exp_avg_sq f8 [3, 3, 3]
2.6844576120536173e-09 2.716062160724756e-09 4.790956821813157e-09 6.611037502454879e-07 7.448646585078866e-07 9.773535641109593e-07 1.656600192641535e-08 9.834433310841064e-09
2.9459707638625203e-09 1.0726382397639472e-08 1.2315316729981513e-08 1.541278756710184e-08 1.1218798297244238e-07 2.4781717118326486e-07 1.603982385849757e-07 6.369037190608139e-08
7.254115371865253e-08 1.1093122154373963e-07 2.5917089670617357e-08 1.850193226009524e-08 2.6098277372588226e-08 1.789311009681739e-07 2.591704050964399e-08 3.179516351721076e-08
5.034573386255347e-09 1.7027221917758625e-08 4.893754962576683e-09
00000000: 938c a449 2f0f 273e 315a 1e11 af54 273e
00000010: 222e b875 b693 343e 3a48 6885 d62e a63e
00000020: 18ec cfb4 56fe a83e bf3a b29b b365 b03e
00000030: 754a 69c0 a0c9 513e 4c86 8d71 891e 453e
00000040: 8134 b31a 424e 293e cbff 261e e408 473e
00000050: 4052 b0be 6a72 4a3e ee31 6081 a28c 503e
00000060: 4665 4fde 7f1d 7e3e 6d01 f371 77a1 903e
00000070: cfd6 c2d3 3d87 853e d4ed 2edf c418 713e
00000080: b739 db78 fd78 733e 7215 02b0 22c7 7d3e
00000090: a050 880d 09d4 5b3e 99c5 edbc c5dd 533e
000000a0: 7a34 0001 d705 5c3e e697 d29b 0604 883e
000000b0: 6757 ed97 05d4 5b3e 7bf7 22dd e411 613e
000000c0: c88f 386d 929f 353e afc9 2239 6848 523e
000000d0: 1f19 6a90 bd04 353e

exp_avg f8 [3]
0.0007055209265688378 0.0005043615894598962 1.435552038680179e-06
00000000: 0a6c 33a7 561e 473f a37c 1b44 e486 403f
00000010: 4289 a728 a615 b83e

exp_avg_sq f8 [3]
3.5933767977700574e-05 9.626915596381e-06 2.6079229796916592e-06
00000000: f131 c5dd f2d6 023f 682d 6934 6930 e43e
00000010: 0967 fcd1 78e0 c53e

exp_avg f8 [3, 18, 1]
-0.00045805762010053076 -0.0005084682521251775 -0.00038760886449787374 -0.0005425525128310536 -0.0002627414260091782 -0.0006235616430892602 -0.00010061024869624653 -0.00012581018569004495
-0.00018991581002202035 -0.00023358012951630154 -0.00018961794367194885 -0.0005425525128310577 -2.4054283509192963e-05 -0.00012581018569004495 -0.0002818566258384782 -0.00012578319065657703
-0.00045846256911436976 -0.0002818318609421198 0.00020341624163277539 0.00023679366375891495 0.00016410288989937964 0.0002132231958312639 0.00010593579691697934 0.000136749210905744
4.936943921971087e-05 4.57197382768935e-05 7.555304920303279e-05 8.424727167974682e-05 7.543234137911865e-05 0.00021322319583126547 6.6511347726471485e-06 4.57197382768935e-05
0.00010655494453317266 4.571097204022311e-05 0.00018605934032920557 0.00010654600997421613 -0.0002954489738691552 -0.00038495398116346796 -0.0002586289447474024 -0.0003870238880018425
-0.00017182877205547422 -0.0004495824498441374 -7.162388979641934e-05 -8.993978610049166e-05 -0.00014622850653150496 -0.00020567652099127347 -0.00014601740159975534 -0.00038702388800184476
-1.7419948326885834e-05 -8.993978610049166e-05 -0.00017634099761825036 -8.991765498162708e-05 -0.00033480436382646604 -0.00017632099650477702
00000000: 77ef 7d7f ee04 3ebf 6a85 c841 57a9 40bf
00000010: 0162 8b65 ff66 39bf e0b6 44a6 42c7 41bf
00000020: a5db fed4 1138 31bf 9d1a 9b6e d06e 44bf
00000030: 6784 42e9 d65f 1abf 2e23 1e44 7d7d 20bf
00000040: fadd d562 84e4 28bf 9258 d708 a69d 2ebf
00000050: f4f7 cdbb 85da 28bf 06b7 44a6 42c7 41bf
00000060: 6baa a8c6 0539 f9be 2e23 1e44 7d7d 20bf
00000070: 36a1 79fd c478 32bf d64d 6961 957c 20bf
00000080: bc2c a4bd b90b 3ebf 0701 2fa0 5a78 32bf
00000090: 2b4f e835 84a9 2a3f 018b 5f15 7a09 2f3f
000000a0: 9128 3117 6182 253f a58d 414e 95f2 2b3f
000000b0: 4d20 0822 3bc5 1b3f 2dca f5c6 8aec 213f
000000c0: abb0 d403 41e2 093f a7a5 d53e 66f8 073f
000000d0: ed5e 7380 47ce 133f e1f8 471b bd15 163f
000000e0: b3ab d3c1 2dc6 133f df8d 414e 95f2 2b3f
000000f0: 14bd 4e01 9ae5 db3e a7a5 d53e 66f8 073f
00000100: 2385 0b02 c8ee 1b3f c58b 330a 39f7 073f
00000110: 23ed 4b90 1d63 283f 596c 7083 2eee 1b3f
00000120: f701 2fae cf5c 33bf 55a9 72c2 743a 39bf
00000130: 047a 07dc 12f3 30bf 41c9 15f1 2e5d 39bf
00000140: 0912 b9e9 9d85 26bf f365 3feb bd76 3dbf
00000150: b27e a10e 99c6 12bf 35fd 77c2 c193 17bf
00000160: 5bc7 7c4e 9d2a 23bf 18e5 c7dc 5bf5 2abf
00000170: 8548 d5ed 8723 23bf 6bc9 15f1 2e5d 39bf
00000180: bec6 d9bb 2144 f2be 35fd 77c2 c193 17bf
00000190: 3476 aba2 051d 27bf 3652 c78c 4592 17bf
000001a0: 37ae 0ecb 15f1 35bf 4490 c1d3 591c 27bf

exp_avg_sq f8 [3, 18, 1]
2.4921716669403266e-05 6.476434021946163e-05 2.188728354572904e-05 3.8223213847065174e-05 2.0082032952613418e-05 9.98681525300538e-05 1.8291260156330684e-05 2.378882056923165e-06
5.4040803459961055e-06 3.142426747910503e-05 5.396061863544128e-06 3.822321384706524e-05 1.1049685156748617e-06 2.378882056923165e-06 8.93705249980247e-06 2.375947650591291e-06
2.7376738753260937e-05 8.93165653688222e-06 2.1051695517274467e-06 4.051090035526083e-06 1.673420046511488e-06 2.714121663256981e-06 1.5750027554882307e-06 2.7501588424963684e-06
1.2188377487608908e-06 1.6872639761138402e-07 3.3460325192981023e-07 1.3197838004697481e-06 3.343351056047788e-07 2.71412166325699e-06 7.553929930273828e-08 1.6872639761138402e-07
3.9656663824197544e-07 1.6857194075705068e-07 1.1911782822242538e-06 3.963999183789213e-07 2.2108665144303567e-05 6.039628294664976e-05 2.0181272787655344e-05 3.427544724399371e-05
1.8157021545690778e-05 0.00010071213209431069 1.7166301994072735e-05 2.2674994076147714e-06 5.106481769887564e-06 3.0348547687294427e-05 5.09877437646249e-06 3.427544724399389e-05
9.317964881142707e-07 2.2674994076147714e-06 8.93012407286806e-06 2.264717904891043e-06 2.6459888297504356e-05 8.924641171513931e-06
00000000: f4c1 3154 df21 fa3e dcd0 8be4 42fa 103f
00000010: 9cb2 24ac 52f3 f63e d345 9ba0 3b0a 043f
00000020: 583b dacb ba0e f53e ee21 cecb 092e 1a3f
00000030: 0b30 a8d3 052e f33e b1f0 c83d 9cf4 c33e
00000040: 7b08 624b 96aa d63e e4a4 e69b b179 003f
00000050: b1b3 d730 faa1 d63e dd45 9ba0 3b0a 043f
00000060: e530 37bb cd89 b23e b1f0 c83d 9cf4 c33e
00000070: 4bcd 8724 0bbe e23e 84d6 ce08 4fee c33e
00000080: 2dce 6f29 e3b4 fc3e a99b f686 25bb e23e
00000090: 09b1 4533 d1a8 c13e 26c2 5926 d3fd d03e
000000a0: 8e74 9ecc 4813 bc3e 3642 fa29 88c4 c63e
000000b0: bc96 ebd7 956c ba3e e735 12d0 eb11 c73e
000000c0: 7450 f246 de72 b43e 4781 b416 65a5 863e
000000d0: af50 2daa 7074 963e 3215 80a2 6d24 b63e
000000e0: 0b30 4158 d56f 963e 4c42 fa29 88c4 c63e
000000f0: 5a0f 3168 0547 743e 4781 b416 65a5 863e
00000100: 52b4 0d85 f69c 9a3e bd0e ca78 16a0 863e
00000110: c74f 3f5f 12fc b33e 44dd 2c47 199a 9a3e
00000120: 6c8b 69e6 bf2e f73e 268c fe7a 40aa 0f3f
00000130: d158 7e81 5e29 f53e eb00 5666 5ff8 013f
00000140: c054 0b05 fd09 f33e 0de8 2e41 ad66 1a3f
00000150: dbd5 5f4a 0b00 f23e da92 79fb 6a05 c33e
00000160: d228 5005 0b6b d53e 23bc 1751 a0d2 ff3e
00000170: e387 b76d c462 d53e 0501 5666 5ff8 013f
00000180: 9702 9525 1244 af3e da92 79fb 6a05 c33e
00000190: bce1 2de8 52ba e23e 6188 c4d5 71ff c23e
000001a0: d3e7 a4ad c5be fb3e 1ce4 bc57 61b7 e23e

exp_avg f8 [3]
-0.0011176281709094527 0.0006306674789988056 -0.000694580807007445
00000000: 527a 5c1c ac4f 52bf b0ad 3519 6caa 443f
00000010: 6c0b deec 90c2 46bf

exp_avg_sq f8 [3]
0.00045869833996640567 1.375852914992613e-05 0.0004570272279803018
00000000: b742 6f5e ae0f 3e3f ff8b 01d9 8dda ec3e
00000010: 20e4 5fff a4f3 3d3f

exp_avg f8 [3, 3, 3]
4.467796698589702e-05 2.486889767111748e-05 1.571912785934291e-05 1.8716448647381143e-05 2.2533036075665464e-05 5.597925551837965e-05 9.964422895939484e-06 1.4255890334296553e-05
-2.4751675920178015e-06 8.637382871955235e-67 3.1406432042510523e-67 1.1884660292129859e-66 4.0275405530003615e-67 1.0415428489158802e-66 -1.2344862368262361e-67 -3.470380058897105e-67
-1.1136820199675392e-66 -6.8823406210783e-68 -2.3940857037938337e-05 7.163029980167385e-05 6.605894662005918e-05 7.683800101682639e-06 -5.971861084676555e-05 2.270775588757433e-06
-4.232728375699545e-05 2.1730010044224124e-06 -3.521483807613919e-05
00000000: b7ad a641 936c 073f 7ac2 8ca2 b113 fa3e
00000010: 09ed c13d 927b f03e 740b b28e 28a0 f33e
00000020: 97e4 c972 aaa0 f73e b486 da92 6859 0d3f
00000030: ee3a d2da 9be5 e43e c7be faa5 92e5 ed3e
00000040: 29ba 28c6 61c3 c4be 76a1 1c75 4d49 3732
00000050: 7ad7 d13e 2fef 2032 0f13 8fdb 3e05 4032
00000060: 4cfc 0fa4 69b7 2532 f927 eaec 7614 3c32
00000070: 2f75 0db5 16a0 0ab2 7871 052a 56b6 22b2
00000080: 6b13 dece 5906 3eb2 6433 99ee 06b0 fdb1
00000090: 4afd 122b 931a f9be 56d0 212e 07c7 123f
000000a0: 81a5 b50f 2451 113f 6274 d571 351d e03e
000000b0: db49 2ad8 4b4f 0fbf bff5 fa14 740c c33e
000000c0: 13ce 4d65 1231 06bf 0557 8eef 7b3a c23e
000000d0: 71ce 7a9f 7476 02bf

exp_avg_sq f8 [3, 3, 3]
1.9214863274130317e-07 3.449471386614216e-07 6.07476186633167e-07 2.9110986007976026e-06 4.176933182471696e-06 6.714133883060076e-06 1.5343615522529627e-06 2.3696391904625187e-06
3.7101582736271692e-06 4.690527000064963e-09 4.479204005175387e-09 7.246403554761523e-09 1.954922094892835e-08 1.963127106483073e-08 1.2966278271712608e-08 2.5618743565208896e-08
2.7293988200881462e-08 2.5136609861032724e-08 8.189034394928522e-07 1.2826251747294943e-06 2.4060199172385372e-06 6.7022407449421644e-06 7.470860729063577e-06 1.3712098856374035e-05
4.039009490223441e-06 3.756306126463361e-06 6.50285297579424e-06
00000000: 3820 683f 2dca 893e 95d6 488f 2526 973e
00000010: 1a3e f842 2e62 a43e ac53 6e61 896b c83e
00000020: 2286 90a6 f284 d13e bd75 9711 3f29 dc3e
00000030: 21a6 2f5e 08be b93e 2f5b f9eb c2e0 c33e
00000040: 39be d414 811f cf3e e305 65fa 4925 343e
00000050: b867 d1d7 ef3c 333e 4581 9545 811f 3f3e
00000060: 1752 b920 a6fd 543e 55a3 35e4 3314 553e
00000070: 4964 f16f 49d8 4b3e b959 e5cf 0682 5b3e
00000080: 8c20 5dac 834e 5d3e e3c9 36ab 7ffd 5a3e
00000090: 487a 1eb5 537a ab3e fa7b 2f4b d584 b53e
000000a0: 91c5 1570 e32e c43e 24e0 65e8 791c dc3e
000000b0: bd30 6e8f c655 df3e 2811 4884 a0c1 ec3e
000000c0: f976 8c79 daf0 d03e 7170 bb21 9b82 cf3e
000000d0: 3b87 7a9d 6246 db3e

exp_avg f8 [3]
1.8493943607285337e-05 2.1864857107699388e-66 0.0003950064176240245
00000000: 9761 a220 6e64 f33e 74cb 1cee 4879 4d32
00000010: 2e48 39a5 1be3 393f

exp_avg_sq f8 [3]
7.723309513546614e-05 9.95844687094341e-08 0.0001528108984529008
00000000: 5830 9a78 063f 143f 49f4 2b80 64bb 7a3e
00000010: 5054 669f 7b07 243f

exp_avg f8 [3, 3, 3]
-2.4154839444089e-05 -6.430895381957312e-06 -4.386300712447043e-06 1.249272485557423e-73 -1.1660456383605166e-95 3.1957009768282967e-83 -2.5506700599161838e-06 6.592377647410311e-06
-2.2095095006856142e-06 -2.692308234988905e-07 -3.779446065015295e-07 2.2570806225454027e-115 -7.883165892880397e-106 8.294085978568442e-97 3.237315352574644e-113 -2.9365537218745703e-81
4.4289370915333085e-29 -2.6255689005404323e-07 2.146218337409529e-05 -8.949633660850298e-05 -1.4334380930140105e-05 4.152181549895985e-72 2.044736098163532e-72 2.2782575872351463e-68
6.785158765468855e-06 -2.1223821960161193e-05 -2.70414175293327e-05
00000000: e897 5fed 0354 f9be cb5d f70f 1ff9 dabe
00000010: 1e72 b828 c165 d2be cd4b 8426 cb40 cc30
00000020: b571 06de 15e8 38ac 27a5 c054 7b0a cf2e
00000030: a011 dbb1 8565 c5be 5e73 31f8 82a6 db3e
00000040: a7ac 9fb1 e288 c2be 67b8 18af 5911 92be
00000050: 5072 40f5 095d 99be d0cf 833b 65c9 2128
00000060: 4064 7f8f 94ed 1caa 9598 d18b 7f58 fc2b
00000070: f407 fbce 44ee 9328 e45b 9e66 c048 36af
00000080: 4112 e47d 5c12 0c3a 2180 0d6a b19e 91be
00000090: ff21 d602 3681 f63e 0645 fa5a ff75 17bf
000000a0: a621 4f50 b60f eebe 2d42 311b 5758 1d31
000000b0: 77ca 321e e2e6 0c31 b1f3 4e79 aaa7 e331
000000c0: c142 5f3d 8275 dc3e e228 7ff0 3941 f6be
000000d0: 39ac 1410 e05a fcbe

exp_avg_sq f8 [3, 3, 3]
2.3508771003256665e-06 3.865156160308247e-06 5.833836198986068e-06 8.293980883348328e-11 2.963630012212736e-10 8.242451725845187e-10 4.2727911861269935e-07 1.0371826322858729e-06
1.3700179904848601e-06 2.9556162076517364e-09 3.4281014784896163e-09 8.900687328090664e-10 1.3864123642481211e-11 2.4581432072167176e-11 1.2705689374282417e-11 3.2145701328633916e-10
3.382311354104462e-10 4.851837523780959e-10 2.7663884016403853e-06 3.8100440995206635e-06 5.396394614672026e-06 1.8231799420981402e-09 3.36579536532885e-09 5.255097731937652e-09
3.314983794478978e-07 5.877192133982316e-07 8.551173263600407e-07
00000000: fe29 885a 78b8 c33e 082c 0d09 2e36 d03e
00000010: a093 0faf 0878 d83e dcb6 c4c4 5ecc d63d
00000020: f91f 474d ac5d f43d e641 4520 2352 0c3e
00000030: 9c82 d76f 99ac 9c3e e671 445d aa66 b13e
00000040: 1004 f7b5 2efc b63e b351 a501 7863 293e
00000050: 7bce 5091 7972 2d3e 581e 519b 2095 0e3e
00000060: 503a 47c9 ce7c ae3d 098a 66da 0e07 bb3d
00000070: 83ba 55d0 aaf0 ab3d a5ac 6caf 2117 f63d
00000080: c5d3 8a9d 393e f73d f7b9 e6ae b8ab 003e
00000090: 4f51 761b c634 c73e 6cee 16e5 01f6 cf3e
000000a0: d51f 1fa8 55a2 d63e e9d1 8020 6e52 1f3e
000000b0: e865 1958 76e9 2c3e a962 ff82 0a92 363e
000000c0: 51f3 894a 193f 963e 23ae ce37 78b8 a33e
000000d0: e04c 0be3 66b1 ac3e

exp_avg f8 [3]
0.0006650794769489317 -6.808038642170709e-07 -4.642221024231955e-05
00000000: c977 264d 17cb 453f a169 a687 0fd8 a6be
00000010: 3883 96ff ae56 08bf

exp_avg_sq f8 [3]
0.000452158242967871 1.1333683340221182e-08 0.00029603453074766633
00000000: a2e9 bcdd f4a1 3d3f 4cc3 8a20 c256 483e
00000010: d6bf c7a0 a266 333f

exp_avg f8 [3, 3, 3]
-1.0055480752645554e-05 8.634612739730395e-06 7.856264806614621e-05 -1.1718856363369013e-05 -9.26435038585463e-06 4.1491624636826895e-05 -3.129467089123254e-06 1.8814191019759072e-05
6.516018367519627e-05 1.4038462686503079e-05 -5.638933507107919e-08 -4.5599956750538815e-06 8.615751827868775e-06 -8.708894886524043e-07 1.003994664352667e-06 3.6330538537306426e-07
-1.1528929493459792e-06 -3.0173711676721624e-06 -6.153971006899161e-113 -3.8850030411110745e-113 -2.683801239107585e-113 2.2212831809518737e-112 5.687430891387351e-113 1.7130309556053492e-112
-6.453368862595816e-113 -4.853959614340488e-113 -4.1750852698030875e-113
00000000: 9b4a 55c0 7e16 e5be d546 7a23 ac1b e23e
00000010: dffb 3a04 4098 143f da8d be5a 8393 e8be
00000020: 1621 239f c26d e3be 7eb4 f25d e9c0 053f
00000030: bc8c 03ba 7a40 cabe 42dd b15c 65ba f33e
00000040: 73c0 796e d314 113f 6b94 b79e d770 ed3e
00000050: 45db d358 1746 6ebe 58ef 1b11 4220 d3be
00000060: 5203 23ea 8b11 e23e 5d6d 123d e238 adbe
00000070: 922b c4ce 1fd8 b03e 5a05 8cfb 8961 983e
00000080: 7829 1134 a357 b3be 44ef 9257 c14f c9be
00000090: df74 a579 93f1 a2a8 2cca 2b99 13eb 97a8
000000a0: 7059 e6d8 e285 90a8 d014 2993 2618 c128
000000b0: 4dac 847a ec81 a128 b789 a085 af5d ba28
000000c0: 677b 2c7b 83dd a3a8 4f10 e5d8 3ae2 9da8
000000d0: 8b76 28f9 44b4 99a8

exp_avg_sq f8 [3, 3, 3]
2.2088200311584032e-07 6.568093546589558e-07 1.927564015143353e-06 7.038256735308965e-07 1.4450459812270067e-06 2.8866172503680173e-06 3.312826590136647e-07 5.846229718184694e-07
1.1038910309082127e-06 2.341425039819681e-07 6.863238297140334e-07 8.069455850387645e-07 2.3684741148709674e-07 8.597518052528539e-07 9.360517283599995e-07 2.6354940868514542e-09
1.2152760107820067e-08 8.554699486488954e-09 7.073782476901314e-14 2.117943455675898e-14 3.118566083627553e-14 3.729072893066805e-12 1.917852193907184e-12 1.930511713908435e-12
4.939465459740235e-12 7.810648367363157e-12 6.972963983673073e-12
00000000: c771 76a5 72a5 8d3e 2da8 9c0b f309 a63e
00000010: b8a8 2286 692b c03e 6685 2106 d19d a73e
00000020: 1765 e9db 6c3e b83e fef2 a89d f636 c83e
00000030: 3f0c ec8a 643b 963e a215 c182 df9d a33e
00000040: 334b 3706 2d85 b23e 15a7 d73e 136d 8f3e
00000050: fa2d f80f 7a07 a73e d5d7 821b 9c13 ab3e
00000060: 65f8 0edd 03ca 8f3e 5892 b836 36d9 ac3e
00000070: cf54 e184 9f68 af3e e6d8 ff45 83a3 263e
00000080: 6412 25ef 0c19 4a3e cd60 5beb fe5e 423e
00000090: 9ea2 c28c 32e9 333d 5a04 826f 8ed8 173d
000000a0: bd6f f5ce 538e 213d ef95 2915 9066 903d
000000b0: a8d7 bc84 9ede 803d 2e63 243c 20fb 803d
000000c0: 757a c9fc 57b9 953d 5708 f70e 012d a13d
000000d0: 0a05 2b08 dcaa 9e3d

exp_avg f8 [3]
-0.00021861167463123996 -2.98268857432198e-06 2.1360740027299673e-112
00000000: f502 73fc 63a7 2cbf 9707 7f62 4605 c9be
00000010: bb1d a8b1 4770 c028

exp_avg_sq f8 [3]
3.826765454734688e-05 6.808176749058525e-06 1.281079237761895e-11
00000000: 1be3 2399 3210 043f a087 f85f 398e dc3e
00000010: ab23 bec0 d52b ac3d

exp_avg f8 [1, 3, 3]
-4.285219284819978e-05 0.0001289180943428224 0.0003103406150394208 -6.029426555189377e-08 5.433044187419317e-07 2.1405343084502476e-06 0.0 0.0
-3.9055636142316095e-113
00000000: a194 7f22 8677 06bf c874 85ff c5e5 203f
00000010: 7597 ceca a656 343f 1041 dfef 632f 70be
00000020: e26f 390d f33a a23e 4a48 4f2e c3f4 c13e
00000030: 0000 0000 0000 0000 0000 0000 0000 0000
00000040: e41c ab4e 7b0b 98a8

exp_avg_sq f8 [1, 3, 3]
3.9337081206217037e-05 0.00016599379424310314 0.000219489941517139 1.125649652718928e-07 9.014375153480867e-07 3.159193404342096e-06 0.0 0.0
3.203257120646051e-13
00000000: bc14 83d1 bb9f 043f bb61 d1d5 d3c1 253f
00000010: 1885 c13d dcc4 2c3f c349 a7cf 6737 7e3e
00000020: 9005 470f 4a3f ae3e eeb0 f4f0 5080 ca3e
00000030: 0000 0000 0000 0000 0000 0000 0000 0000
00000040: ea55 909b 798a 563d

exp_avg f8 [1]
-0.0017438571313677632
00000000: f69c 4756 4492 5cbf

exp_avg_sq f8 [1]
0.002466923023888567
00000000: 7f00 b336 8335 643f

exp_avg f8 [1, 3, 1]
-0.00024017465405596952 -0.0007570492262216082 0.00022574689958470133
00000000: abc9 a991 ec7a 2fbf 0ec6 83d5 96ce 48bf
00000010: 9536 0e1a cf96 2d3f
