blob_checkpoints/TCN/_model.pth.tar (torch, 233650 bytes, 14 tensors)

weight f4 [3, 18, 3]
000000 eb af 3e bd 8c 87 f6 3d c4 4d 2f 3d 4f 6b 34 bc
       -0.046554487 0.12037572 0.042798772 -0.0110119125
000010 af eb b1 bc 37 9e e0 bd f7 50 d1 3d 28 cb ad 3d
       -0.021718828 -0.10967677 0.10220521 0.084860146
000020 3c 6b 2a bd 63 e5 69 3d 4f 7f 8b bd 58 2e f0 bd
       -0.041606173 0.057103526 -0.068113916 -0.11727589
000030 3e 0f cb bc 1e db e1 bc 42 d3 2b bd b6 2e 30 bd
       -0.024787541 -0.027570304 -0.041949518 -0.043013297
000040 1b 5e d3 bd 73 75 fc 3c 12 66 92 3d 08 c4 04 ba
       -0.103206836 0.030817723 0.071483746 -0.00050646113
000050 f6 7b 9f 3d f4 05 a5 bd d1 0b fb 3d 54 c2 e9 3c
       0.077873155 -0.08057776 0.12258113 0.028535046
000060 bc 2c ab bd 00 c1 01 3e da 6e ec bd 50 f2 09 3d
       -0.08358142 0.1267128 -0.11544581 0.033678353
000070 43 51 4b bd e8 82 08 be b2 6b 00 be 83 47 95 bd
       -0.049638044 -0.13331187 -0.12541083 -0.072890304
000080 68 2f a8 3d 00 2b c9 3d 6f 06 be 3d cc 4f 39 3d
       0.08212167 0.09822655 0.09278571 0.045242116
000090 fa ce b2 bb 51 85 3d 3b 24 5d 07 be 4f 76 6c 3d
       -0.0054568024 0.0028918574 -0.13219124 0.057730015
0000a0 fb 2f b8 bd 41 25 b9 3c bb 7c a9 bc 83 1f 0b be
       -0.089935265 0.022600772 -0.020689359 -0.1358624
0000b0 84 42 81 3d 9c fe 12 bd 46 ab be 3d 94 1b fb 3d
       0.06311515 -0.035887346 0.093100116 0.122611195
0000c0 53 99 c5 3d c3 e3 05 be 8c 43 0c bc bf 57 e8 3d
       0.09648385 -0.13075165 -0.008561026 0.11344861
0000d0 e9 09 d8 3c 63 a8 05 3e 39 3d 82 bd c2 b7 41 bc
       0.026371913 0.13052516 -0.063593335 -0.011823596
0000e0 21 62 af 3d 3b d0 98 3d 7c 49 b0 3d 7a 79 f1 3d
       0.085636385 0.07461592 0.08607766 0.11790748
0000f0 c1 40 ef 3d 37 93 0d 3d 81 fc c2 3d f3 ae eb 3d
       0.11682273 0.034564223 0.095208175 0.11507978
000100 1a 4f 7b bd 48 1e c4 3d ce bc 99 3d 20 18 06 be
       -0.061354734 0.09576088 0.07506715 -0.1309514
000110 0f c6 d3 bd 22 77 c3 3c 2d c6 c4 bd fe 2c ea 3d
       -0.10340511 0.023860518 -0.096081115 0.11434363
000120 24 a2 7a bc dd 4f ad bd 4e b3 09 3d fa 0b 24 bd
       -0.015297446 -0.08462498 0.033618264 -0.040050484
000130 61 46 40 3d f9 8c 02 be 6f b1 86 3d 82 7f 0a 3e
       0.04694212 -0.1274909 0.065768115 0.13525203
000140 f8 8e b1 bd 8e e5 3c bb 28 16 f6 bc ac 9d 78 3d
       -0.08669847 -0.0028823349 -0.030039862 0.060697243
000150 99 49 04 3e 3f 20 b8 3d 75 5d 2d bd 0c d1 95 bd
       0.129187 0.089905255 -0.042325456 -0.07315263
000160 04 ce 6c bc fd 70 b1 bd 0f 6b a6 bc d4 3f df 3d
       -0.014453415 -0.08664129 -0.020314721 0.10900846
000170 04 c7 3e bc 82 b5 de 3c ad 02 a8 bd 32 ee 12 3d
       -0.011644129 0.027186159 -0.08203635 0.035871692
000180 10 a6 70 3d 3e 78 e3 3d ec 60 96 3d ea ff 82 3d
       0.05875212 0.11106919 0.07342705 0.06396468
000190 15 c5 00 bd 9e 08 a4 3d ab f9 22 3d c4 08 01 3e
       -0.031437952 0.08009456 0.039788883 0.12601
0001a0 ea f0 e2 bd 86 be b4 3c ad ae c7 3c f2 b8 40 3c
       -0.11081107 0.022063505 0.024375284 0.011762844
0001b0 f9 4d c0 3d 58 77 9f 3d ce 70 e7 bd 95 37 c0 3d
       0.09389872 0.07786435 -0.11300813 0.093856014
0001c0 b9 74 41 3d 5a 38 9a 3d c2 54 90 bd 6a 0d 9e bd
       0.047230456 0.075302795 -0.07047416 -0.07717402
0001d0 8c 9b 22 3d 48 7f b0 bd 4d d0 0b bd 93 d8 d9 bd
       0.039699122 -0.08618027 -0.034134198 -0.106370114
0001e0 a0 6a 9a 3d 28 0b 5f 3d 81 c4 07 be c6 31 8e bd
       0.07539868 0.054454 -0.13258554 -0.06943087
0001f0 04 c0 bf bd b3 4a d6 bd 39 10 b8 3c 4a ac 95 bd
       -0.09362796 -0.104634665 0.022468673 -0.07308252
000200 09 67 0d 3d 94 bc 0f 3c 63 55 14 bd 91 52 83 3d
       0.03452209 0.008772988 -0.036214244 0.06412233
000210 bd 6a 18 3d b4 2c 2d bc bd b0 fc bd 0f 25 76 3c
       0.03721117 -0.01056974 -0.12338398 0.015023484
000220 4c 31 d7 bb 2e 7f 03 3e 19 98 2b 3d 94 5e 1b 3d
       -0.006567156 0.12841484 0.0418931 0.037931994
000230 f0 20 ae bd 3c d5 07 be 2e 21 ed bd 5c c5 ae 3c
       -0.08502376 -0.13264936 -0.11578594 0.021334343
000240 50 0a e2 3d 6c 60 a2 3c 88 68 c4 3d 12 16 f9 bb
       0.11037123 0.019821368 0.0959025 -0.007601508
000250 66 26 d3 3d d2 f2 a5 bd ca 9c 81 3c 4a 88 57 3d
       0.10310058 -0.08102955 0.015821833 0.05262021
000260 8a 93 61 bb 0a df f6 3d d0 8a f7 bd 27 33 aa bc
       -0.0034420216 0.1205426 -0.12087023 -0.020776344
000270 66 b0 1b bd 8d f6 a3 3d ef 00 eb bc 59 be 94 bd
       -0.038010024 0.0800601 -0.028686969 -0.072628684
000280 48 54 8a 3d 85 24 9b bd
       0.067543566 -0.07575325

bias f4 [3]
000000 c4 25 c2 3d c0 ea 90 3d 46 86 ef 3d
       0.094798595 0.07076025 0.116955325

weight f4 [3, 3, 3]
000000 a8 02 3d be 2b 02 86 bc 76 7d 36 3d 20 ea e0 3d
       -0.18458045 -0.016358456 0.044553243 0.10982156
000010 83 8f 55 be c0 cf e7 3d 83 3d 0b 3e 56 a5 bf 3b
       -0.20855527 0.11318922 0.13597684 0.005848567
000020 18 46 7c be 1e 17 35 be 56 e8 26 be fa 97 a6 3e
       -0.24636114 -0.176846 -0.16299567 0.32537824
000030 e8 2d 3f be b7 28 94 3e 08 c4 80 be 80 44 c9 bc
       -0.18669856 0.28937313 -0.2514956 -0.024568796
000040 38 61 08 3e d0 49 bd bd a4 19 a4 3e 2b 09 1b 3d
       0.13318336 -0.09242594 0.32050812 0.03785054
000050 08 f3 9b 3e 53 95 6a 3e f2 2f 98 be 06 db 6e be
       0.30458856 0.22908525 -0.2972408 -0.23325738
000060 50 05 6b be af e2 8b 3e 9b d4 43 be
       -0.22951245 0.27321383 -0.19124071

bias f4 [3]
000000 b0 ad c4 bd ab 44 bb 3d 36 da 00 bd
       -0.09603441 0.09143957 -0.031458102

weight f4 [3, 18, 1]
000000 c9 63 40 3d a1 6e ea 3c 1c bc 59 3d 4f 8c 46 3e
       0.046970163 0.028617205 0.05315791 0.19389461
000010 0b 78 6f 3e b4 28 74 3c 88 5b e8 bc 2f d6 1f 3e
       0.23385637 0.0149022825 -0.028363958 0.15609048
000020 99 d0 8c bc 84 d5 f9 3c 27 30 ac 3d 9a 55 56 3c
       -0.01718931 0.03049732 0.08407622 0.013081932
000030 db a1 01 be 14 4a 89 3d 4d 5d 19 be bd f8 35 be
       -0.12659399 0.067035824 -0.14976998 -0.17770667
000040 73 a5 19 3e 7b b9 59 3e fa 94 92 3b d2 17 ad 3d
       0.1500452 0.21262161 0.004473326 0.08451809
000050 ab 92 b6 bd 91 be ed bc 49 43 15 be 23 7b 10 3e
       -0.089146934 -0.029021533 -0.14576449 0.14109473
000060 29 9d 2a 3c 53 4b f4 bd 7f ff f1 bd b8 fd f4 3c
       0.010413446 -0.119284295 -0.1181631 0.029906139
000070 46 0c 05 bd b4 a3 96 3d 33 a2 46 bd 3a eb 56 3e
       -0.032482408 0.07355443 -0.04849453 0.2098817
000080 ac 22 d4 3d 00 66 0b 3e 90 2d 49 3e 1f 05 10 3e
       0.10358176 0.13613129 0.19646287 0.14064454
000090 58 47 73 3d 0f 79 c1 bc 57 96 80 bd 06 60 18 be
       0.05939421 -0.023617296 -0.06278675 -0.1488038
0000a0 d2 30 6c 3e 2a aa 1d 3e bf 32 48 3c 45 74 59 3e
       0.23065498 0.15396944 0.01221913 0.2123576
0000b0 86 b6 e0 bd 1b cf 9e bb fc 6c 16 be 54 c6 df bd
       -0.109723136 -0.0048464662 -0.14690012 -0.109265
0000c0 1a 68 05 3e c1 22 64 3e 09 42 e9 bd 88 f3 2e be
       0.13027993 0.22278883 -0.11389548 -0.17085087
0000d0 5f cc 24 be 43 72 fc 3d
       -0.16093586 0.12326481

bias f4 [3]
000000 71 83 23 be ab e8 c9 3d c0 78 2d be
       -0.1596811 0.09858831 -0.16940594

weight f4 [3, 3, 3]
000000 68 3e 51 3e e0 5c ea bd ab 01 62 3e 7e 2f 43 3e
       0.20433962 -0.11443496 0.22070949 0.19061086
000010 7e ef 80 be a8 81 3d be 9c 41 88 be ab 54 27 3b
       -0.25182718 -0.18506491 -0.26612556 0.0025532644
000020 00 ba 67 be 60 8f c8 3d 83 63 2b be 96 ec e9 bc
       -0.22629547 0.097929716 -0.1673718 -0.028555196
000030 a6 6a a8 3e 33 99 94 3e 1b f1 9c be 76 9d f0 bd
       0.32893866 0.29023132 -0.306527 -0.11748783
000040 40 05 be bc 00 eb 3d be 73 a0 39 be 43 b7 65 3e
       -0.023195863 -0.18546677 -0.18127613 0.2243319
000050 80 13 59 be b6 e8 b9 3d 56 8a 3e be 2b 7e 94 3d
       -0.21198845 0.09077589 -0.18607458 0.07250627
000060 3a 98 98 be 8e b1 6a 3e 56 c9 06 3b
       -0.2980364 0.22919294 0.0020566783

bias f4 [3]
000000 c6 5d a8 3d c7 a6 a7 be 56 0d 9e ba
       0.08221011 -0.3274443 -0.0012058418

weight f4 [3, 3, 3]
000000 d6 a7 3f bd 88 97 3d be 84 61 9a be 10 8b 5c be
       -0.04679092 -0.18514836 -0.30152524 -0.21537423
000010 7b e4 cb 3d 7a 57 9e 3e 60 c2 4d be 96 e6 31 3d
       0.099556886 0.30926114 -0.2009368 0.043432795
000020 84 f0 9d be 5f 66 98 3e f3 19 a6 3e 40 81 56 be
       -0.3084756 0.29765603 0.32441673 -0.20947742
000030 cb b8 46 bd 6b a0 51 3e 56 4b 00 bd eb 58 90 bc
       -0.048516076 0.20471351 -0.031321846 -0.017620524
000040 56 4d d2 3c 8e 1b 4f 3e fb 87 0b be 6b a2 b0 3d
       0.025671642 0.20225355 -0.13626091 0.08624729
000050 c8 84 24 3e 56 19 c0 bc 16 3f ab 3d 50 0e 3e 3e
       0.16066277 -0.023449581 0.08361642 0.18560147
000060 00 06 2a 3d 96 b2 41 be 96 c1 92 be
       0.04150963 -0.18915781 -0.2866332

bias f4 [3]
000000 bc 4e 97 3e 20 dc 72 be 4b 68 38 3e
       0.29552257 -0.23716784 0.18008535

weight f4 [3, 3, 3]
000000 b7 cf 83 be 8b 8d 72 3e 00 d0 0b bb 00 15 e3 3d
       -0.2574441 0.23686807 -0.0021333694 0.1108799
000010 80 5a fd 3d 68 d1 66 be db 4b 94 be 97 07 a3 be
       0.12370777 -0.2254082 -0.28964123 -0.31841728
000020 86 5f a3 be ab 48 fb 3d f8 ab 56 3e 48 64 66 3e
       -0.31908816 0.1226972 0.20964038 0.22499192
000030 70 15 97 3d 10 7f 80 3e b2 e9 a5 3e fb 74 6b 3e
       0.07377136 0.2509694 0.32404858 0.22993843
000040 46 fb 9d bd 2a ec 83 3e 22 04 a8 be f0 7e 81 be
       -0.07713942 0.25766116 -0.32815653 -0.25292158
000050 80 82 ef 3d 33 fd 6a 3e ba 63 8b be eb 79 61 bd
       0.11694813 0.2294815 -0.27224523 -0.05504791
000060 76 fb 2f be 90 c1 9e be 2b fb 58 bc
       -0.17185768 -0.3100705 -0.013243477

bias f4 [3]
000000 7c d8 a7 3e 8e 45 88 be 1e dd a2 be
       0.32782352 -0.26615566 -0.31809324

weight f4 [1, 3, 3]
000000 a8 4b 72 be bb ca 7b 3e be 0b 52 be 22 1c a2 3e
       -0.23661673 0.24589054 -0.20512292 0.3166209
000010 1e d6 71 be 3e 7c 79 3e 00 cd ef 3b 10 52 23 3e
       -0.23616835 0.24363801 0.007318139 0.15949273
000020 b6 ff be bd
       -0.09326117

weight f4 [1, 3, 1]
000000 2e e2 f4 3e c7 82 a0 bd 2d cc 99 3e
       0.4782881 -0.07837444 0.30038586
